{"format": "graph-model", "generatedBy": "2.20.0", "convertedBy": "TensorFlow.js Converter v4.22.0", "signature": {"inputs": {"images": {"name": "images:0", "dtype": "DT_FLOAT", "tensorShape": {"dim": [{"size": "1"}, {"size": "640"}, {"size": "640"}, {"size": "3"}]}}}, "outputs": {"output_0": {"name": "Identity:0", "dtype": "DT_FLOAT", "tensorShape": {"dim": [{"size": "1"}, {"size": "18"}, {"size": "8400"}]}}}}, "modelTopology": {"node": [{"name": "ConstantFolding/PartitionedCall/model_59/tf.math.divide_1/truediv_recip", "op": "Const", "attr": {"value": {"tensor": {"dtype": "DT_FLOAT", "tensorShape": {}}}, "dtype": {"type": "DT_FLOAT"}}}, {"name": "unknown_182", "op": "Const", "attr": {"value": {"tensor": {"dtype": "DT_INT64", "tensorShape": {"dim": [{"size": "3"}]}}}, "dtype": {"type": "DT_INT64"}}}, {"name": "unknown_183", "op": "Const", "attr": {"value": {"tensor": {"dtype": "DT_INT64", "tensorShape": {"dim": [{"size": "3"}]}}}, "dtype": {"type": "DT_INT64"}}}, {"name": "PartitionedCall/model_59/tf.strided_slice_39/ones_like", "op": "Const", "attr": {"value": {"tensor": {"dtype": "DT_INT64", "tensorShape": {"dim": [{"size": "3"}]}}}, "dtype": {"type": "DT_INT64"}}}, {"name": "unknown_189", "op": "Const", "attr": {"value": {"tensor": {"dtype": "DT_FLOAT", "tensorShape": {"dim": [{"size": "1"}, {"size": "2"}, {"size": "8400"}]}}}, "dtype": {"type": "DT_FLOAT"}}}, {"name": "unknown_190", "op": "Const", "attr": {"value": {"tensor": {"dtype": "DT_FLOAT", "tensorShape": {"dim": [{"size": "1"}, {"size": "2"}, {"size": "8400"}]}}}, "dtype": {"type": "DT_FLOAT"}}}, {"name": "unknown_130", "op": "Const", "attr": {"value": {"tensor": {"dtype": "DT_FLOAT", "tensorShape": {"dim": [{"size": "3"}, {"size": "3"}, {"size": "64"}, {"size": "64"}]}}}, "dtype": {"type": "DT_FLOAT"}}}, {"name": "unknown_133", "op": "Const", "attr": {"value": {"tensor": {"dtype": "DT_FLOAT", "tensorShape": {"dim": [{"size": "64"}]}}}, "dtype": {"type": "DT_FLOAT"}}}, {"name": "unknown_136", "op": "Const", "attr": {"value": {"tensor": {"dtype": "DT_FLOAT", "tensorShape": {"dim": [{"size": "3"}, {"size": "3"}, {"size": "64"}, {"size": "64"}]}}}, "dtype": {"type": "DT_FLOAT"}}}, {"name": "unknown_139", "op": "Const", "attr": {"value": {"tensor": {"dtype": "DT_FLOAT", "tensorShape": {"dim": [{"size": "64"}]}}}, "dtype": {"type": "DT_FLOAT"}}}, {"name": "unknown_145", "op": "Const", "attr": {"value": {"tensor": {"dtype": "DT_FLOAT", "tensorShape": {"dim": [{"size": "1"}, {"size": "1"}, {"size": "64"}, {"size": "64"}]}}}, "dtype": {"type": "DT_FLOAT"}}}, {"name": "unknown_151", "op": "Const", "attr": {"value": {"tensor": {"dtype": "DT_FLOAT", "tensorShape": {"dim": [{"size": "64"}]}}}, "dtype": {"type": "DT_FLOAT"}}}, {"name": "PartitionedCall/model_59/tf.compat.v1.transpose_184/transpose/perm", "op": "Const", "attr": {"value": {"tensor": {"dtype": "DT_INT32", "tensorShape": {"dim": [{"size": "4"}]}}}, "dtype": {"type": "DT_INT32"}}}, {"name": "PartitionedCall/model_59/tf.reshape_41/Reshape/shape", "op": "Const", "attr": {"value": {"tensor": {"dtype": "DT_INT32", "tensorShape": {"dim": [{"size": "3"}]}}}, "dtype": {"type": "DT_INT32"}}}, {"name": "unknown_129", "op": "Const", "attr": {"value": {"tensor": {"dtype": "DT_FLOAT", "tensorShape": {"dim": [{"size": "3"}, {"size": "3"}, {"size": "128"}, {"size": "64"}]}}}, "dtype": {"type": "DT_FLOAT"}}}, {"name": "unknown_132", "op": "Const", "attr": {"value": {"tensor": {"dtype": "DT_FLOAT", "tensorShape": {"dim": [{"size": "64"}]}}}, "dtype": {"type": "DT_FLOAT"}}}, {"name": "unknown_135", "op": "Const", "attr": {"value": {"tensor": {"dtype": "DT_FLOAT", "tensorShape": {"dim": [{"size": "3"}, {"size": "3"}, {"size": "64"}, {"size": "64"}]}}}, "dtype": {"type": "DT_FLOAT"}}}, {"name": "unknown_138", "op": "Const", "attr": {"value": {"tensor": {"dtype": "DT_FLOAT", "tensorShape": {"dim": [{"size": "64"}]}}}, "dtype": {"type": "DT_FLOAT"}}}, {"name": "unknown_144", "op": "Const", "attr": {"value": {"tensor": {"dtype": "DT_FLOAT", "tensorShape": {"dim": [{"size": "1"}, {"size": "1"}, {"size": "64"}, {"size": "64"}]}}}, "dtype": {"type": "DT_FLOAT"}}}, {"name": "unknown_150", "op": "Const", "attr": {"value": {"tensor": {"dtype": "DT_FLOAT", "tensorShape": {"dim": [{"size": "64"}]}}}, "dtype": {"type": "DT_FLOAT"}}}, {"name": "PartitionedCall/model_59/tf.compat.v1.transpose_210/transpose/perm", "op": "Const", "attr": {"value": {"tensor": {"dtype": "DT_INT32", "tensorShape": {"dim": [{"size": "4"}]}}}, "dtype": {"type": "DT_INT32"}}}, {"name": "PartitionedCall/model_59/tf.reshape_50/Reshape/shape", "op": "Const", "attr": {"value": {"tensor": {"dtype": "DT_INT32", "tensorShape": {"dim": [{"size": "3"}]}}}, "dtype": {"type": "DT_INT32"}}}, {"name": "unknown_128", "op": "Const", "attr": {"value": {"tensor": {"dtype": "DT_FLOAT", "tensorShape": {"dim": [{"size": "3"}, {"size": "3"}, {"size": "256"}, {"size": "64"}]}}}, "dtype": {"type": "DT_FLOAT"}}}, {"name": "unknown_131", "op": "Const", "attr": {"value": {"tensor": {"dtype": "DT_FLOAT", "tensorShape": {"dim": [{"size": "64"}]}}}, "dtype": {"type": "DT_FLOAT"}}}, {"name": "unknown_134", "op": "Const", "attr": {"value": {"tensor": {"dtype": "DT_FLOAT", "tensorShape": {"dim": [{"size": "3"}, {"size": "3"}, {"size": "64"}, {"size": "64"}]}}}, "dtype": {"type": "DT_FLOAT"}}}, {"name": "unknown_137", "op": "Const", "attr": {"value": {"tensor": {"dtype": "DT_FLOAT", "tensorShape": {"dim": [{"size": "64"}]}}}, "dtype": {"type": "DT_FLOAT"}}}, {"name": "unknown_143", "op": "Const", "attr": {"value": {"tensor": {"dtype": "DT_FLOAT", "tensorShape": {"dim": [{"size": "1"}, {"size": "1"}, {"size": "64"}, {"size": "64"}]}}}, "dtype": {"type": "DT_FLOAT"}}}, {"name": "unknown_149", "op": "Const", "attr": {"value": {"tensor": {"dtype": "DT_FLOAT", "tensorShape": {"dim": [{"size": "64"}]}}}, "dtype": {"type": "DT_FLOAT"}}}, {"name": "PartitionedCall/model_59/tf.compat.v1.transpose_234/transpose/perm", "op": "Const", "attr": {"value": {"tensor": {"dtype": "DT_INT32", "tensorShape": {"dim": [{"size": "4"}]}}}, "dtype": {"type": "DT_INT32"}}}, {"name": "PartitionedCall/model_59/tf.reshape_59/Reshape/shape", "op": "Const", "attr": {"value": {"tensor": {"dtype": "DT_INT32", "tensorShape": {"dim": [{"size": "3"}]}}}, "dtype": {"type": "DT_INT32"}}}, {"name": "PartitionedCall/model_59/tf.concat_35/concat/axis", "op": "Const", "attr": {"value": {"tensor": {"dtype": "DT_INT32", "tensorShape": {}}}, "dtype": {"type": "DT_INT32"}}}, {"name": "PartitionedCall/model_59/tf.reshape_68/Reshape/shape", "op": "Const", "attr": {"value": {"tensor": {"dtype": "DT_INT32", "tensorShape": {"dim": [{"size": "4"}]}}}, "dtype": {"type": "DT_INT32"}}}, {"name": "PartitionedCall/model_59/tf.compat.v1.transpose_255/transpose/perm", "op": "Const", "attr": {"value": {"tensor": {"dtype": "DT_INT32", "tensorShape": {"dim": [{"size": "4"}]}}}, "dtype": {"type": "DT_INT32"}}}, {"name": "PartitionedCall/model_59/tf.compat.v1.transpose_256/transpose/perm", "op": "Const", "attr": {"value": {"tensor": {"dtype": "DT_INT32", "tensorShape": {"dim": [{"size": "4"}]}}}, "dtype": {"type": "DT_INT32"}}}, {"name": "unknown_176", "op": "Const", "attr": {"value": {"tensor": {"dtype": "DT_FLOAT", "tensorShape": {"dim": [{"size": "1"}, {"size": "1"}, {"size": "16"}, {"size": "1"}]}}}, "dtype": {"type": "DT_FLOAT"}}}, {"name": "PartitionedCall/model_59/tf.compat.v1.transpose_261/transpose/perm", "op": "Const", "attr": {"value": {"tensor": {"dtype": "DT_INT32", "tensorShape": {"dim": [{"size": "4"}]}}}, "dtype": {"type": "DT_INT32"}}}, {"name": "PartitionedCall/model_59/tf.reshape_74/Reshape/shape", "op": "Const", "attr": {"value": {"tensor": {"dtype": "DT_INT32", "tensorShape": {"dim": [{"size": "3"}]}}}, "dtype": {"type": "DT_INT32"}}}, {"name": "unknown_184", "op": "Const", "attr": {"value": {"tensor": {"dtype": "DT_INT64", "tensorShape": {"dim": [{"size": "3"}]}}}, "dtype": {"type": "DT_INT64"}}}, {"name": "unknown_185", "op": "Const", "attr": {"value": {"tensor": {"dtype": "DT_INT64", "tensorShape": {"dim": [{"size": "3"}]}}}, "dtype": {"type": "DT_INT64"}}}, {"name": "PartitionedCall/model_59/tf.strided_slice_38/ones_like", "op": "Const", "attr": {"value": {"tensor": {"dtype": "DT_INT64", "tensorShape": {"dim": [{"size": "3"}]}}}, "dtype": {"type": "DT_INT64"}}}, {"name": "PartitionedCall/model_59/tf.concat_42/concat/axis", "op": "Const", "attr": {"value": {"tensor": {"dtype": "DT_INT32", "tensorShape": {}}}, "dtype": {"type": "DT_INT32"}}}, {"name": "PartitionedCall/model_59/tf.math.multiply_551/Mul/y", "op": "Const", "attr": {"value": {"tensor": {"dtype": "DT_FLOAT", "tensorShape": {"dim": [{"size": "1"}, {"size": "1"}, {"size": "8400"}]}}}, "dtype": {"type": "DT_FLOAT"}}}, {"name": "unknown_160", "op": "Const", "attr": {"value": {"tensor": {"dtype": "DT_FLOAT", "tensorShape": {"dim": [{"size": "3"}, {"size": "3"}, {"size": "64"}, {"size": "64"}]}}}, "dtype": {"type": "DT_FLOAT"}}}, {"name": "unknown_163", "op": "Const", "attr": {"value": {"tensor": {"dtype": "DT_FLOAT", "tensorShape": {"dim": [{"size": "64"}]}}}, "dtype": {"type": "DT_FLOAT"}}}, {"name": "unknown_172", "op": "Const", "attr": {"value": {"tensor": {"dtype": "DT_FLOAT", "tensorShape": {"dim": [{"size": "3"}, {"size": "3"}, {"size": "64"}, {"size": "64"}]}}}, "dtype": {"type": "DT_FLOAT"}}}, {"name": "unknown_175", "op": "Const", "attr": {"value": {"tensor": {"dtype": "DT_FLOAT", "tensorShape": {"dim": [{"size": "64"}]}}}, "dtype": {"type": "DT_FLOAT"}}}, {"name": "unknown_181", "op": "Const", "attr": {"value": {"tensor": {"dtype": "DT_FLOAT", "tensorShape": {"dim": [{"size": "1"}, {"size": "1"}, {"size": "64"}, {"size": "5"}]}}}, "dtype": {"type": "DT_FLOAT"}}}, {"name": "unknown_188", "op": "Const", "attr": {"value": {"tensor": {"dtype": "DT_FLOAT", "tensorShape": {"dim": [{"size": "5"}]}}}, "dtype": {"type": "DT_FLOAT"}}}, {"name": "PartitionedCall/model_59/tf.compat.v1.transpose_189/transpose/perm", "op": "Const", "attr": {"value": {"tensor": {"dtype": "DT_INT32", "tensorShape": {"dim": [{"size": "4"}]}}}, "dtype": {"type": "DT_INT32"}}}, {"name": "PartitionedCall/model_59/tf.reshape_44/Reshape/shape", "op": "Const", "attr": {"value": {"tensor": {"dtype": "DT_INT32", "tensorShape": {"dim": [{"size": "3"}]}}}, "dtype": {"type": "DT_INT32"}}}, {"name": "unknown_159", "op": "Const", "attr": {"value": {"tensor": {"dtype": "DT_FLOAT", "tensorShape": {"dim": [{"size": "3"}, {"size": "3"}, {"size": "128"}, {"size": "64"}]}}}, "dtype": {"type": "DT_FLOAT"}}}, {"name": "unknown_162", "op": "Const", "attr": {"value": {"tensor": {"dtype": "DT_FLOAT", "tensorShape": {"dim": [{"size": "64"}]}}}, "dtype": {"type": "DT_FLOAT"}}}, {"name": "unknown_171", "op": "Const", "attr": {"value": {"tensor": {"dtype": "DT_FLOAT", "tensorShape": {"dim": [{"size": "3"}, {"size": "3"}, {"size": "64"}, {"size": "64"}]}}}, "dtype": {"type": "DT_FLOAT"}}}, {"name": "unknown_174", "op": "Const", "attr": {"value": {"tensor": {"dtype": "DT_FLOAT", "tensorShape": {"dim": [{"size": "64"}]}}}, "dtype": {"type": "DT_FLOAT"}}}, {"name": "unknown_180", "op": "Const", "attr": {"value": {"tensor": {"dtype": "DT_FLOAT", "tensorShape": {"dim": [{"size": "1"}, {"size": "1"}, {"size": "64"}, {"size": "5"}]}}}, "dtype": {"type": "DT_FLOAT"}}}, {"name": "unknown_187", "op": "Const", "attr": {"value": {"tensor": {"dtype": "DT_FLOAT", "tensorShape": {"dim": [{"size": "5"}]}}}, "dtype": {"type": "DT_FLOAT"}}}, {"name": "PartitionedCall/model_59/tf.compat.v1.transpose_215/transpose/perm", "op": "Const", "attr": {"value": {"tensor": {"dtype": "DT_INT32", "tensorShape": {"dim": [{"size": "4"}]}}}, "dtype": {"type": "DT_INT32"}}}, {"name": "PartitionedCall/model_59/tf.reshape_53/Reshape/shape", "op": "Const", "attr": {"value": {"tensor": {"dtype": "DT_INT32", "tensorShape": {"dim": [{"size": "3"}]}}}, "dtype": {"type": "DT_INT32"}}}, {"name": "unknown_158", "op": "Const", "attr": {"value": {"tensor": {"dtype": "DT_FLOAT", "tensorShape": {"dim": [{"size": "3"}, {"size": "3"}, {"size": "256"}, {"size": "64"}]}}}, "dtype": {"type": "DT_FLOAT"}}}, {"name": "unknown_161", "op": "Const", "attr": {"value": {"tensor": {"dtype": "DT_FLOAT", "tensorShape": {"dim": [{"size": "64"}]}}}, "dtype": {"type": "DT_FLOAT"}}}, {"name": "unknown_170", "op": "Const", "attr": {"value": {"tensor": {"dtype": "DT_FLOAT", "tensorShape": {"dim": [{"size": "3"}, {"size": "3"}, {"size": "64"}, {"size": "64"}]}}}, "dtype": {"type": "DT_FLOAT"}}}, {"name": "unknown_173", "op": "Const", "attr": {"value": {"tensor": {"dtype": "DT_FLOAT", "tensorShape": {"dim": [{"size": "64"}]}}}, "dtype": {"type": "DT_FLOAT"}}}, {"name": "unknown_179", "op": "Const", "attr": {"value": {"tensor": {"dtype": "DT_FLOAT", "tensorShape": {"dim": [{"size": "1"}, {"size": "1"}, {"size": "64"}, {"size": "5"}]}}}, "dtype": {"type": "DT_FLOAT"}}}, {"name": "unknown_186", "op": "Const", "attr": {"value": {"tensor": {"dtype": "DT_FLOAT", "tensorShape": {"dim": [{"size": "5"}]}}}, "dtype": {"type": "DT_FLOAT"}}}, {"name": "PartitionedCall/model_59/tf.compat.v1.transpose_239/transpose/perm", "op": "Const", "attr": {"value": {"tensor": {"dtype": "DT_INT32", "tensorShape": {"dim": [{"size": "4"}]}}}, "dtype": {"type": "DT_INT32"}}}, {"name": "PartitionedCall/model_59/tf.reshape_62/Reshape/shape", "op": "Const", "attr": {"value": {"tensor": {"dtype": "DT_INT32", "tensorShape": {"dim": [{"size": "3"}]}}}, "dtype": {"type": "DT_INT32"}}}, {"name": "PartitionedCall/model_59/tf.concat_36/concat/axis", "op": "Const", "attr": {"value": {"tensor": {"dtype": "DT_INT32", "tensorShape": {}}}, "dtype": {"type": "DT_INT32"}}}, {"name": "unknown_177", "op": "Const", "attr": {"value": {"tensor": {"dtype": "DT_INT64", "tensorShape": {"dim": [{"size": "4"}]}}}, "dtype": {"type": "DT_INT64"}}}, {"name": "unknown_178", "op": "Const", "attr": {"value": {"tensor": {"dtype": "DT_INT64", "tensorShape": {"dim": [{"size": "4"}]}}}, "dtype": {"type": "DT_INT64"}}}, {"name": "PartitionedCall/model_59/tf.strided_slice_36/StridedSlice/strides", "op": "Const", "attr": {"value": {"tensor": {"dtype": "DT_INT64", "tensorShape": {"dim": [{"size": "4"}]}}}, "dtype": {"type": "DT_INT64"}}}, {"name": "PartitionedCall/model_59/tf.math.multiply_537/Mul/y", "op": "Const", "attr": {"value": {"tensor": {"dtype": "DT_FLOAT", "tensorShape": {}}}, "dtype": {"type": "DT_FLOAT"}}}, {"name": "unknown_193", "op": "Const", "attr": {"value": {"tensor": {"dtype": "DT_FLOAT", "tensorShape": {"dim": [{"size": "1"}, {"size": "1"}, {"size": "2"}, {"size": "8400"}]}}}, "dtype": {"type": "DT_FLOAT"}}}, {"name": "PartitionedCall/model_59/tf.math.multiply_538/Mul/y", "op": "Const", "attr": {"value": {"tensor": {"dtype": "DT_FLOAT", "tensorShape": {"dim": [{"size": "1"}, {"size": "1"}, {"size": "1"}, {"size": "8400"}]}}}, "dtype": {"type": "DT_FLOAT"}}}, {"name": "unknown_142", "op": "Const", "attr": {"value": {"tensor": {"dtype": "DT_FLOAT", "tensorShape": {"dim": [{"size": "3"}, {"size": "3"}, {"size": "64"}, {"size": "16"}]}}}, "dtype": {"type": "DT_FLOAT"}}}, {"name": "unknown_148", "op": "Const", "attr": {"value": {"tensor": {"dtype": "DT_FLOAT", "tensorShape": {"dim": [{"size": "16"}]}}}, "dtype": {"type": "DT_FLOAT"}}}, {"name": "unknown_154", "op": "Const", "attr": {"value": {"tensor": {"dtype": "DT_FLOAT", "tensorShape": {"dim": [{"size": "3"}, {"size": "3"}, {"size": "16"}, {"size": "16"}]}}}, "dtype": {"type": "DT_FLOAT"}}}, {"name": "unknown_157", "op": "Const", "attr": {"value": {"tensor": {"dtype": "DT_FLOAT", "tensorShape": {"dim": [{"size": "16"}]}}}, "dtype": {"type": "DT_FLOAT"}}}, {"name": "unknown_166", "op": "Const", "attr": {"value": {"tensor": {"dtype": "DT_FLOAT", "tensorShape": {"dim": [{"size": "1"}, {"size": "1"}, {"size": "16"}, {"size": "9"}]}}}, "dtype": {"type": "DT_FLOAT"}}}, {"name": "unknown_169", "op": "Const", "attr": {"value": {"tensor": {"dtype": "DT_FLOAT", "tensorShape": {"dim": [{"size": "9"}]}}}, "dtype": {"type": "DT_FLOAT"}}}, {"name": "PartitionedCall/model_59/tf.compat.v1.transpose_194/transpose/perm", "op": "Const", "attr": {"value": {"tensor": {"dtype": "DT_INT32", "tensorShape": {"dim": [{"size": "4"}]}}}, "dtype": {"type": "DT_INT32"}}}, {"name": "PartitionedCall/model_59/tf.reshape_47/Reshape/shape", "op": "Const", "attr": {"value": {"tensor": {"dtype": "DT_INT32", "tensorShape": {"dim": [{"size": "3"}]}}}, "dtype": {"type": "DT_INT32"}}}, {"name": "unknown_141", "op": "Const", "attr": {"value": {"tensor": {"dtype": "DT_FLOAT", "tensorShape": {"dim": [{"size": "3"}, {"size": "3"}, {"size": "128"}, {"size": "16"}]}}}, "dtype": {"type": "DT_FLOAT"}}}, {"name": "unknown_147", "op": "Const", "attr": {"value": {"tensor": {"dtype": "DT_FLOAT", "tensorShape": {"dim": [{"size": "16"}]}}}, "dtype": {"type": "DT_FLOAT"}}}, {"name": "unknown_153", "op": "Const", "attr": {"value": {"tensor": {"dtype": "DT_FLOAT", "tensorShape": {"dim": [{"size": "3"}, {"size": "3"}, {"size": "16"}, {"size": "16"}]}}}, "dtype": {"type": "DT_FLOAT"}}}, {"name": "unknown_156", "op": "Const", "attr": {"value": {"tensor": {"dtype": "DT_FLOAT", "tensorShape": {"dim": [{"size": "16"}]}}}, "dtype": {"type": "DT_FLOAT"}}}, {"name": "unknown_165", "op": "Const", "attr": {"value": {"tensor": {"dtype": "DT_FLOAT", "tensorShape": {"dim": [{"size": "1"}, {"size": "1"}, {"size": "16"}, {"size": "9"}]}}}, "dtype": {"type": "DT_FLOAT"}}}, {"name": "unknown_168", "op": "Const", "attr": {"value": {"tensor": {"dtype": "DT_FLOAT", "tensorShape": {"dim": [{"size": "9"}]}}}, "dtype": {"type": "DT_FLOAT"}}}, {"name": "PartitionedCall/model_59/tf.compat.v1.transpose_220/transpose/perm", "op": "Const", "attr": {"value": {"tensor": {"dtype": "DT_INT32", "tensorShape": {"dim": [{"size": "4"}]}}}, "dtype": {"type": "DT_INT32"}}}, {"name": "PartitionedCall/model_59/tf.reshape_56/Reshape/shape", "op": "Const", "attr": {"value": {"tensor": {"dtype": "DT_INT32", "tensorShape": {"dim": [{"size": "3"}]}}}, "dtype": {"type": "DT_INT32"}}}, {"name": "unknown_124", "op": "Const", "attr": {"value": {"tensor": {"dtype": "DT_INT64", "tensorShape": {"dim": [{"size": "4"}]}}}, "dtype": {"type": "DT_INT64"}}}, {"name": "unknown_125", "op": "Const", "attr": {"value": {"tensor": {"dtype": "DT_INT64", "tensorShape": {"dim": [{"size": "4"}]}}}, "dtype": {"type": "DT_INT64"}}}, {"name": "PartitionedCall/model_59/tf.strided_slice_34/ones_like", "op": "Const", "attr": {"value": {"tensor": {"dtype": "DT_INT64", "tensorShape": {"dim": [{"size": "4"}]}}}, "dtype": {"type": "DT_INT64"}}}, {"name": "unknown_109", "op": "Const", "attr": {"value": {"tensor": {"dtype": "DT_INT64", "tensorShape": {"dim": [{"size": "4"}]}}}, "dtype": {"type": "DT_INT64"}}}, {"name": "unknown_110", "op": "Const", "attr": {"value": {"tensor": {"dtype": "DT_INT64", "tensorShape": {"dim": [{"size": "4"}]}}}, "dtype": {"type": "DT_INT64"}}}, {"name": "PartitionedCall/model_59/tf.strided_slice_32/ones_like", "op": "Const", "attr": {"value": {"tensor": {"dtype": "DT_INT64", "tensorShape": {"dim": [{"size": "4"}]}}}, "dtype": {"type": "DT_INT64"}}}, {"name": "unknown_94", "op": "Const", "attr": {"value": {"tensor": {"dtype": "DT_INT64", "tensorShape": {"dim": [{"size": "4"}]}}}, "dtype": {"type": "DT_INT64"}}}, {"name": "unknown_95", "op": "Const", "attr": {"value": {"tensor": {"dtype": "DT_INT64", "tensorShape": {"dim": [{"size": "4"}]}}}, "dtype": {"type": "DT_INT64"}}}, {"name": "PartitionedCall/model_59/tf.strided_slice_30/ones_like", "op": "Const", "attr": {"value": {"tensor": {"dtype": "DT_INT64", "tensorShape": {"dim": [{"size": "4"}]}}}, "dtype": {"type": "DT_INT64"}}}, {"name": "PartitionedCall/model_59/tf.image.resize_3/resize/size", "op": "Const", "attr": {"value": {"tensor": {"dtype": "DT_INT32", "tensorShape": {"dim": [{"size": "2"}]}}}, "dtype": {"type": "DT_INT32"}}}, {"name": "PartitionedCall/model_59/tf.concat_29/concat/axis", "op": "Const", "attr": {"value": {"tensor": {"dtype": "DT_INT32", "tensorShape": {}}}, "dtype": {"type": "DT_INT32"}}}, {"name": "unknown_86", "op": "Const", "attr": {"value": {"tensor": {"dtype": "DT_FLOAT", "tensorShape": {"dim": [{"size": "1"}, {"size": "1"}, {"size": "192"}, {"size": "64"}]}}}, "dtype": {"type": "DT_FLOAT"}}}, {"name": "unknown_87", "op": "Const", "attr": {"value": {"tensor": {"dtype": "DT_FLOAT", "tensorShape": {"dim": [{"size": "64"}]}}}, "dtype": {"type": "DT_FLOAT"}}}, {"name": "unknown_88", "op": "Const", "attr": {"value": {"tensor": {"dtype": "DT_INT64", "tensorShape": {"dim": [{"size": "4"}]}}}, "dtype": {"type": "DT_INT64"}}}, {"name": "unknown_89", "op": "Const", "attr": {"value": {"tensor": {"dtype": "DT_INT64", "tensorShape": {"dim": [{"size": "4"}]}}}, "dtype": {"type": "DT_INT64"}}}, {"name": "PartitionedCall/model_59/tf.strided_slice_31/ones_like", "op": "Const", "attr": {"value": {"tensor": {"dtype": "DT_INT64", "tensorShape": {"dim": [{"size": "4"}]}}}, "dtype": {"type": "DT_INT64"}}}, {"name": "unknown_90", "op": "Const", "attr": {"value": {"tensor": {"dtype": "DT_FLOAT", "tensorShape": {"dim": [{"size": "3"}, {"size": "3"}, {"size": "32"}, {"size": "32"}]}}}, "dtype": {"type": "DT_FLOAT"}}}, {"name": "unknown_91", "op": "Const", "attr": {"value": {"tensor": {"dtype": "DT_FLOAT", "tensorShape": {"dim": [{"size": "32"}]}}}, "dtype": {"type": "DT_FLOAT"}}}, {"name": "unknown_92", "op": "Const", "attr": {"value": {"tensor": {"dtype": "DT_FLOAT", "tensorShape": {"dim": [{"size": "3"}, {"size": "3"}, {"size": "32"}, {"size": "32"}]}}}, "dtype": {"type": "DT_FLOAT"}}}, {"name": "unknown_93", "op": "Const", "attr": {"value": {"tensor": {"dtype": "DT_FLOAT", "tensorShape": {"dim": [{"size": "32"}]}}}, "dtype": {"type": "DT_FLOAT"}}}, {"name": "PartitionedCall/model_59/tf.concat_30/concat/axis", "op": "Const", "attr": {"value": {"tensor": {"dtype": "DT_INT32", "tensorShape": {}}}, "dtype": {"type": "DT_INT32"}}}, {"name": "unknown_96", "op": "Const", "attr": {"value": {"tensor": {"dtype": "DT_FLOAT", "tensorShape": {"dim": [{"size": "1"}, {"size": "1"}, {"size": "96"}, {"size": "64"}]}}}, "dtype": {"type": "DT_FLOAT"}}}, {"name": "unknown_97", "op": "Const", "attr": {"value": {"tensor": {"dtype": "DT_FLOAT", "tensorShape": {"dim": [{"size": "64"}]}}}, "dtype": {"type": "DT_FLOAT"}}}, {"name": "unknown_98", "op": "Const", "attr": {"value": {"tensor": {"dtype": "DT_INT32", "tensorShape": {"dim": [{"size": "4"}, {"size": "2"}]}}}, "dtype": {"type": "DT_INT32"}}}, {"name": "unknown_99", "op": "Const", "attr": {"value": {"tensor": {"dtype": "DT_FLOAT", "tensorShape": {"dim": [{"size": "3"}, {"size": "3"}, {"size": "64"}, {"size": "64"}]}}}, "dtype": {"type": "DT_FLOAT"}}}, {"name": "unknown_100", "op": "Const", "attr": {"value": {"tensor": {"dtype": "DT_FLOAT", "tensorShape": {"dim": [{"size": "64"}]}}}, "dtype": {"type": "DT_FLOAT"}}}, {"name": "unknown_82", "op": "Const", "attr": {"value": {"tensor": {"dtype": "DT_INT64", "tensorShape": {"dim": [{"size": "4"}]}}}, "dtype": {"type": "DT_INT64"}}}, {"name": "unknown_83", "op": "Const", "attr": {"value": {"tensor": {"dtype": "DT_INT64", "tensorShape": {"dim": [{"size": "4"}]}}}, "dtype": {"type": "DT_INT64"}}}, {"name": "PartitionedCall/model_59/tf.strided_slice_28/ones_like", "op": "Const", "attr": {"value": {"tensor": {"dtype": "DT_INT64", "tensorShape": {"dim": [{"size": "4"}]}}}, "dtype": {"type": "DT_INT64"}}}, {"name": "PartitionedCall/model_59/tf.image.resize_2/resize/size", "op": "Const", "attr": {"value": {"tensor": {"dtype": "DT_INT32", "tensorShape": {"dim": [{"size": "2"}]}}}, "dtype": {"type": "DT_INT32"}}}, {"name": "PartitionedCall/model_59/tf.concat_27/concat/axis", "op": "Const", "attr": {"value": {"tensor": {"dtype": "DT_INT32", "tensorShape": {}}}, "dtype": {"type": "DT_INT32"}}}, {"name": "unknown_74", "op": "Const", "attr": {"value": {"tensor": {"dtype": "DT_FLOAT", "tensorShape": {"dim": [{"size": "1"}, {"size": "1"}, {"size": "384"}, {"size": "128"}]}}}, "dtype": {"type": "DT_FLOAT"}}}, {"name": "unknown_75", "op": "Const", "attr": {"value": {"tensor": {"dtype": "DT_FLOAT", "tensorShape": {"dim": [{"size": "128"}]}}}, "dtype": {"type": "DT_FLOAT"}}}, {"name": "unknown_76", "op": "Const", "attr": {"value": {"tensor": {"dtype": "DT_INT64", "tensorShape": {"dim": [{"size": "4"}]}}}, "dtype": {"type": "DT_INT64"}}}, {"name": "unknown_77", "op": "Const", "attr": {"value": {"tensor": {"dtype": "DT_INT64", "tensorShape": {"dim": [{"size": "4"}]}}}, "dtype": {"type": "DT_INT64"}}}, {"name": "PartitionedCall/model_59/tf.strided_slice_29/ones_like", "op": "Const", "attr": {"value": {"tensor": {"dtype": "DT_INT64", "tensorShape": {"dim": [{"size": "4"}]}}}, "dtype": {"type": "DT_INT64"}}}, {"name": "unknown_78", "op": "Const", "attr": {"value": {"tensor": {"dtype": "DT_FLOAT", "tensorShape": {"dim": [{"size": "3"}, {"size": "3"}, {"size": "64"}, {"size": "64"}]}}}, "dtype": {"type": "DT_FLOAT"}}}, {"name": "unknown_79", "op": "Const", "attr": {"value": {"tensor": {"dtype": "DT_FLOAT", "tensorShape": {"dim": [{"size": "64"}]}}}, "dtype": {"type": "DT_FLOAT"}}}, {"name": "unknown_80", "op": "Const", "attr": {"value": {"tensor": {"dtype": "DT_FLOAT", "tensorShape": {"dim": [{"size": "3"}, {"size": "3"}, {"size": "64"}, {"size": "64"}]}}}, "dtype": {"type": "DT_FLOAT"}}}, {"name": "unknown_81", "op": "Const", "attr": {"value": {"tensor": {"dtype": "DT_FLOAT", "tensorShape": {"dim": [{"size": "64"}]}}}, "dtype": {"type": "DT_FLOAT"}}}, {"name": "PartitionedCall/model_59/tf.concat_28/concat/axis", "op": "Const", "attr": {"value": {"tensor": {"dtype": "DT_INT32", "tensorShape": {}}}, "dtype": {"type": "DT_INT32"}}}, {"name": "unknown_84", "op": "Const", "attr": {"value": {"tensor": {"dtype": "DT_FLOAT", "tensorShape": {"dim": [{"size": "1"}, {"size": "1"}, {"size": "192"}, {"size": "128"}]}}}, "dtype": {"type": "DT_FLOAT"}}}, {"name": "unknown_85", "op": "Const", "attr": {"value": {"tensor": {"dtype": "DT_FLOAT", "tensorShape": {"dim": [{"size": "128"}]}}}, "dtype": {"type": "DT_FLOAT"}}}, {"name": "PartitionedCall/model_59/tf.concat_31/concat/axis", "op": "Const", "attr": {"value": {"tensor": {"dtype": "DT_INT32", "tensorShape": {}}}, "dtype": {"type": "DT_INT32"}}}, {"name": "unknown_101", "op": "Const", "attr": {"value": {"tensor": {"dtype": "DT_FLOAT", "tensorShape": {"dim": [{"size": "1"}, {"size": "1"}, {"size": "192"}, {"size": "128"}]}}}, "dtype": {"type": "DT_FLOAT"}}}, {"name": "unknown_102", "op": "Const", "attr": {"value": {"tensor": {"dtype": "DT_FLOAT", "tensorShape": {"dim": [{"size": "128"}]}}}, "dtype": {"type": "DT_FLOAT"}}}, {"name": "unknown_103", "op": "Const", "attr": {"value": {"tensor": {"dtype": "DT_INT64", "tensorShape": {"dim": [{"size": "4"}]}}}, "dtype": {"type": "DT_INT64"}}}, {"name": "unknown_104", "op": "Const", "attr": {"value": {"tensor": {"dtype": "DT_INT64", "tensorShape": {"dim": [{"size": "4"}]}}}, "dtype": {"type": "DT_INT64"}}}, {"name": "PartitionedCall/model_59/tf.strided_slice_33/ones_like", "op": "Const", "attr": {"value": {"tensor": {"dtype": "DT_INT64", "tensorShape": {"dim": [{"size": "4"}]}}}, "dtype": {"type": "DT_INT64"}}}, {"name": "unknown_105", "op": "Const", "attr": {"value": {"tensor": {"dtype": "DT_FLOAT", "tensorShape": {"dim": [{"size": "3"}, {"size": "3"}, {"size": "64"}, {"size": "64"}]}}}, "dtype": {"type": "DT_FLOAT"}}}, {"name": "unknown_106", "op": "Const", "attr": {"value": {"tensor": {"dtype": "DT_FLOAT", "tensorShape": {"dim": [{"size": "64"}]}}}, "dtype": {"type": "DT_FLOAT"}}}, {"name": "unknown_107", "op": "Const", "attr": {"value": {"tensor": {"dtype": "DT_FLOAT", "tensorShape": {"dim": [{"size": "3"}, {"size": "3"}, {"size": "64"}, {"size": "64"}]}}}, "dtype": {"type": "DT_FLOAT"}}}, {"name": "unknown_108", "op": "Const", "attr": {"value": {"tensor": {"dtype": "DT_FLOAT", "tensorShape": {"dim": [{"size": "64"}]}}}, "dtype": {"type": "DT_FLOAT"}}}, {"name": "PartitionedCall/model_59/tf.concat_32/concat/axis", "op": "Const", "attr": {"value": {"tensor": {"dtype": "DT_INT32", "tensorShape": {}}}, "dtype": {"type": "DT_INT32"}}}, {"name": "unknown_111", "op": "Const", "attr": {"value": {"tensor": {"dtype": "DT_FLOAT", "tensorShape": {"dim": [{"size": "1"}, {"size": "1"}, {"size": "192"}, {"size": "128"}]}}}, "dtype": {"type": "DT_FLOAT"}}}, {"name": "unknown_112", "op": "Const", "attr": {"value": {"tensor": {"dtype": "DT_FLOAT", "tensorShape": {"dim": [{"size": "128"}]}}}, "dtype": {"type": "DT_FLOAT"}}}, {"name": "unknown_113", "op": "Const", "attr": {"value": {"tensor": {"dtype": "DT_INT32", "tensorShape": {"dim": [{"size": "4"}, {"size": "2"}]}}}, "dtype": {"type": "DT_INT32"}}}, {"name": "unknown_114", "op": "Const", "attr": {"value": {"tensor": {"dtype": "DT_FLOAT", "tensorShape": {"dim": [{"size": "3"}, {"size": "3"}, {"size": "128"}, {"size": "128"}]}}}, "dtype": {"type": "DT_FLOAT"}}}, {"name": "unknown_115", "op": "Const", "attr": {"value": {"tensor": {"dtype": "DT_FLOAT", "tensorShape": {"dim": [{"size": "128"}]}}}, "dtype": {"type": "DT_FLOAT"}}}, {"name": "unknown_66", "op": "Const", "attr": {"value": {"tensor": {"dtype": "DT_INT64", "tensorShape": {"dim": [{"size": "4"}]}}}, "dtype": {"type": "DT_INT64"}}}, {"name": "unknown_67", "op": "Const", "attr": {"value": {"tensor": {"dtype": "DT_INT64", "tensorShape": {"dim": [{"size": "4"}]}}}, "dtype": {"type": "DT_INT64"}}}, {"name": "PartitionedCall/model_59/tf.strided_slice_26/ones_like", "op": "Const", "attr": {"value": {"tensor": {"dtype": "DT_INT64", "tensorShape": {"dim": [{"size": "4"}]}}}, "dtype": {"type": "DT_INT64"}}}, {"name": "unknown_51", "op": "Const", "attr": {"value": {"tensor": {"dtype": "DT_INT64", "tensorShape": {"dim": [{"size": "4"}]}}}, "dtype": {"type": "DT_INT64"}}}, {"name": "unknown_52", "op": "Const", "attr": {"value": {"tensor": {"dtype": "DT_INT64", "tensorShape": {"dim": [{"size": "4"}]}}}, "dtype": {"type": "DT_INT64"}}}, {"name": "PartitionedCall/model_59/tf.strided_slice_24/ones_like", "op": "Const", "attr": {"value": {"tensor": {"dtype": "DT_INT64", "tensorShape": {"dim": [{"size": "4"}]}}}, "dtype": {"type": "DT_INT64"}}}, {"name": "unknown_32", "op": "Const", "attr": {"value": {"tensor": {"dtype": "DT_INT64", "tensorShape": {"dim": [{"size": "4"}]}}}, "dtype": {"type": "DT_INT64"}}}, {"name": "unknown_33", "op": "Const", "attr": {"value": {"tensor": {"dtype": "DT_INT64", "tensorShape": {"dim": [{"size": "4"}]}}}, "dtype": {"type": "DT_INT64"}}}, {"name": "PartitionedCall/model_59/tf.strided_slice_22/ones_like", "op": "Const", "attr": {"value": {"tensor": {"dtype": "DT_INT64", "tensorShape": {"dim": [{"size": "4"}]}}}, "dtype": {"type": "DT_INT64"}}}, {"name": "unknown_13", "op": "Const", "attr": {"value": {"tensor": {"dtype": "DT_INT64", "tensorShape": {"dim": [{"size": "4"}]}}}, "dtype": {"type": "DT_INT64"}}}, {"name": "unknown_14", "op": "Const", "attr": {"value": {"tensor": {"dtype": "DT_INT64", "tensorShape": {"dim": [{"size": "4"}]}}}, "dtype": {"type": "DT_INT64"}}}, {"name": "PartitionedCall/model_59/tf.strided_slice_20/ones_like", "op": "Const", "attr": {"value": {"tensor": {"dtype": "DT_INT64", "tensorShape": {"dim": [{"size": "4"}]}}}, "dtype": {"type": "DT_INT64"}}}, {"name": "unknown", "op": "Const", "attr": {"value": {"tensor": {"dtype": "DT_INT32", "tensorShape": {"dim": [{"size": "4"}, {"size": "2"}]}}}, "dtype": {"type": "DT_INT32"}}}, {"name": "unknown_0", "op": "Const", "attr": {"value": {"tensor": {"dtype": "DT_FLOAT", "tensorShape": {"dim": [{"size": "3"}, {"size": "3"}, {"size": "3"}, {"size": "16"}]}}}, "dtype": {"type": "DT_FLOAT"}}}, {"name": "unknown_1", "op": "Const", "attr": {"value": {"tensor": {"dtype": "DT_FLOAT", "tensorShape": {"dim": [{"size": "16"}]}}}, "dtype": {"type": "DT_FLOAT"}}}, {"name": "unknown_2", "op": "Const", "attr": {"value": {"tensor": {"dtype": "DT_INT32", "tensorShape": {"dim": [{"size": "4"}, {"size": "2"}]}}}, "dtype": {"type": "DT_INT32"}}}, {"name": "unknown_3", "op": "Const", "attr": {"value": {"tensor": {"dtype": "DT_FLOAT", "tensorShape": {"dim": [{"size": "3"}, {"size": "3"}, {"size": "16"}, {"size": "32"}]}}}, "dtype": {"type": "DT_FLOAT"}}}, {"name": "unknown_4", "op": "Const", "attr": {"value": {"tensor": {"dtype": "DT_FLOAT", "tensorShape": {"dim": [{"size": "32"}]}}}, "dtype": {"type": "DT_FLOAT"}}}, {"name": "unknown_5", "op": "Const", "attr": {"value": {"tensor": {"dtype": "DT_FLOAT", "tensorShape": {"dim": [{"size": "1"}, {"size": "1"}, {"size": "32"}, {"size": "32"}]}}}, "dtype": {"type": "DT_FLOAT"}}}, {"name": "unknown_6", "op": "Const", "attr": {"value": {"tensor": {"dtype": "DT_FLOAT", "tensorShape": {"dim": [{"size": "32"}]}}}, "dtype": {"type": "DT_FLOAT"}}}, {"name": "unknown_7", "op": "Const", "attr": {"value": {"tensor": {"dtype": "DT_INT64", "tensorShape": {"dim": [{"size": "4"}]}}}, "dtype": {"type": "DT_INT64"}}}, {"name": "unknown_8", "op": "Const", "attr": {"value": {"tensor": {"dtype": "DT_INT64", "tensorShape": {"dim": [{"size": "4"}]}}}, "dtype": {"type": "DT_INT64"}}}, {"name": "PartitionedCall/model_59/tf.strided_slice_21/ones_like", "op": "Const", "attr": {"value": {"tensor": {"dtype": "DT_INT64", "tensorShape": {"dim": [{"size": "4"}]}}}, "dtype": {"type": "DT_INT64"}}}, {"name": "unknown_9", "op": "Const", "attr": {"value": {"tensor": {"dtype": "DT_FLOAT", "tensorShape": {"dim": [{"size": "3"}, {"size": "3"}, {"size": "16"}, {"size": "16"}]}}}, "dtype": {"type": "DT_FLOAT"}}}, {"name": "unknown_10", "op": "Const", "attr": {"value": {"tensor": {"dtype": "DT_FLOAT", "tensorShape": {"dim": [{"size": "16"}]}}}, "dtype": {"type": "DT_FLOAT"}}}, {"name": "unknown_11", "op": "Const", "attr": {"value": {"tensor": {"dtype": "DT_FLOAT", "tensorShape": {"dim": [{"size": "3"}, {"size": "3"}, {"size": "16"}, {"size": "16"}]}}}, "dtype": {"type": "DT_FLOAT"}}}, {"name": "unknown_12", "op": "Const", "attr": {"value": {"tensor": {"dtype": "DT_FLOAT", "tensorShape": {"dim": [{"size": "16"}]}}}, "dtype": {"type": "DT_FLOAT"}}}, {"name": "PartitionedCall/model_59/tf.concat_22/concat/axis", "op": "Const", "attr": {"value": {"tensor": {"dtype": "DT_INT32", "tensorShape": {}}}, "dtype": {"type": "DT_INT32"}}}, {"name": "unknown_15", "op": "Const", "attr": {"value": {"tensor": {"dtype": "DT_FLOAT", "tensorShape": {"dim": [{"size": "1"}, {"size": "1"}, {"size": "48"}, {"size": "32"}]}}}, "dtype": {"type": "DT_FLOAT"}}}, {"name": "unknown_16", "op": "Const", "attr": {"value": {"tensor": {"dtype": "DT_FLOAT", "tensorShape": {"dim": [{"size": "32"}]}}}, "dtype": {"type": "DT_FLOAT"}}}, {"name": "unknown_17", "op": "Const", "attr": {"value": {"tensor": {"dtype": "DT_INT32", "tensorShape": {"dim": [{"size": "4"}, {"size": "2"}]}}}, "dtype": {"type": "DT_INT32"}}}, {"name": "unknown_18", "op": "Const", "attr": {"value": {"tensor": {"dtype": "DT_FLOAT", "tensorShape": {"dim": [{"size": "3"}, {"size": "3"}, {"size": "32"}, {"size": "64"}]}}}, "dtype": {"type": "DT_FLOAT"}}}, {"name": "unknown_19", "op": "Const", "attr": {"value": {"tensor": {"dtype": "DT_FLOAT", "tensorShape": {"dim": [{"size": "64"}]}}}, "dtype": {"type": "DT_FLOAT"}}}, {"name": "unknown_20", "op": "Const", "attr": {"value": {"tensor": {"dtype": "DT_FLOAT", "tensorShape": {"dim": [{"size": "1"}, {"size": "1"}, {"size": "64"}, {"size": "64"}]}}}, "dtype": {"type": "DT_FLOAT"}}}, {"name": "unknown_21", "op": "Const", "attr": {"value": {"tensor": {"dtype": "DT_FLOAT", "tensorShape": {"dim": [{"size": "64"}]}}}, "dtype": {"type": "DT_FLOAT"}}}, {"name": "unknown_22", "op": "Const", "attr": {"value": {"tensor": {"dtype": "DT_INT64", "tensorShape": {"dim": [{"size": "4"}]}}}, "dtype": {"type": "DT_INT64"}}}, {"name": "unknown_23", "op": "Const", "attr": {"value": {"tensor": {"dtype": "DT_INT64", "tensorShape": {"dim": [{"size": "4"}]}}}, "dtype": {"type": "DT_INT64"}}}, {"name": "PartitionedCall/model_59/tf.strided_slice_23/ones_like", "op": "Const", "attr": {"value": {"tensor": {"dtype": "DT_INT64", "tensorShape": {"dim": [{"size": "4"}]}}}, "dtype": {"type": "DT_INT64"}}}, {"name": "unknown_24", "op": "Const", "attr": {"value": {"tensor": {"dtype": "DT_FLOAT", "tensorShape": {"dim": [{"size": "3"}, {"size": "3"}, {"size": "32"}, {"size": "32"}]}}}, "dtype": {"type": "DT_FLOAT"}}}, {"name": "unknown_25", "op": "Const", "attr": {"value": {"tensor": {"dtype": "DT_FLOAT", "tensorShape": {"dim": [{"size": "32"}]}}}, "dtype": {"type": "DT_FLOAT"}}}, {"name": "unknown_26", "op": "Const", "attr": {"value": {"tensor": {"dtype": "DT_FLOAT", "tensorShape": {"dim": [{"size": "3"}, {"size": "3"}, {"size": "32"}, {"size": "32"}]}}}, "dtype": {"type": "DT_FLOAT"}}}, {"name": "unknown_27", "op": "Const", "attr": {"value": {"tensor": {"dtype": "DT_FLOAT", "tensorShape": {"dim": [{"size": "32"}]}}}, "dtype": {"type": "DT_FLOAT"}}}, {"name": "unknown_28", "op": "Const", "attr": {"value": {"tensor": {"dtype": "DT_FLOAT", "tensorShape": {"dim": [{"size": "3"}, {"size": "3"}, {"size": "32"}, {"size": "32"}]}}}, "dtype": {"type": "DT_FLOAT"}}}, {"name": "unknown_29", "op": "Const", "attr": {"value": {"tensor": {"dtype": "DT_FLOAT", "tensorShape": {"dim": [{"size": "32"}]}}}, "dtype": {"type": "DT_FLOAT"}}}, {"name": "unknown_30", "op": "Const", "attr": {"value": {"tensor": {"dtype": "DT_FLOAT", "tensorShape": {"dim": [{"size": "3"}, {"size": "3"}, {"size": "32"}, {"size": "32"}]}}}, "dtype": {"type": "DT_FLOAT"}}}, {"name": "unknown_31", "op": "Const", "attr": {"value": {"tensor": {"dtype": "DT_FLOAT", "tensorShape": {"dim": [{"size": "32"}]}}}, "dtype": {"type": "DT_FLOAT"}}}, {"name": "PartitionedCall/model_59/tf.concat_23/concat/axis", "op": "Const", "attr": {"value": {"tensor": {"dtype": "DT_INT32", "tensorShape": {}}}, "dtype": {"type": "DT_INT32"}}}, {"name": "unknown_34", "op": "Const", "attr": {"value": {"tensor": {"dtype": "DT_FLOAT", "tensorShape": {"dim": [{"size": "1"}, {"size": "1"}, {"size": "128"}, {"size": "64"}]}}}, "dtype": {"type": "DT_FLOAT"}}}, {"name": "unknown_35", "op": "Const", "attr": {"value": {"tensor": {"dtype": "DT_FLOAT", "tensorShape": {"dim": [{"size": "64"}]}}}, "dtype": {"type": "DT_FLOAT"}}}, {"name": "unknown_36", "op": "Const", "attr": {"value": {"tensor": {"dtype": "DT_INT32", "tensorShape": {"dim": [{"size": "4"}, {"size": "2"}]}}}, "dtype": {"type": "DT_INT32"}}}, {"name": "unknown_37", "op": "Const", "attr": {"value": {"tensor": {"dtype": "DT_FLOAT", "tensorShape": {"dim": [{"size": "3"}, {"size": "3"}, {"size": "64"}, {"size": "128"}]}}}, "dtype": {"type": "DT_FLOAT"}}}, {"name": "unknown_38", "op": "Const", "attr": {"value": {"tensor": {"dtype": "DT_FLOAT", "tensorShape": {"dim": [{"size": "128"}]}}}, "dtype": {"type": "DT_FLOAT"}}}, {"name": "unknown_39", "op": "Const", "attr": {"value": {"tensor": {"dtype": "DT_FLOAT", "tensorShape": {"dim": [{"size": "1"}, {"size": "1"}, {"size": "128"}, {"size": "128"}]}}}, "dtype": {"type": "DT_FLOAT"}}}, {"name": "unknown_40", "op": "Const", "attr": {"value": {"tensor": {"dtype": "DT_FLOAT", "tensorShape": {"dim": [{"size": "128"}]}}}, "dtype": {"type": "DT_FLOAT"}}}, {"name": "unknown_41", "op": "Const", "attr": {"value": {"tensor": {"dtype": "DT_INT64", "tensorShape": {"dim": [{"size": "4"}]}}}, "dtype": {"type": "DT_INT64"}}}, {"name": "unknown_42", "op": "Const", "attr": {"value": {"tensor": {"dtype": "DT_INT64", "tensorShape": {"dim": [{"size": "4"}]}}}, "dtype": {"type": "DT_INT64"}}}, {"name": "PartitionedCall/model_59/tf.strided_slice_25/ones_like", "op": "Const", "attr": {"value": {"tensor": {"dtype": "DT_INT64", "tensorShape": {"dim": [{"size": "4"}]}}}, "dtype": {"type": "DT_INT64"}}}, {"name": "unknown_43", "op": "Const", "attr": {"value": {"tensor": {"dtype": "DT_FLOAT", "tensorShape": {"dim": [{"size": "3"}, {"size": "3"}, {"size": "64"}, {"size": "64"}]}}}, "dtype": {"type": "DT_FLOAT"}}}, {"name": "unknown_44", "op": "Const", "attr": {"value": {"tensor": {"dtype": "DT_FLOAT", "tensorShape": {"dim": [{"size": "64"}]}}}, "dtype": {"type": "DT_FLOAT"}}}, {"name": "unknown_45", "op": "Const", "attr": {"value": {"tensor": {"dtype": "DT_FLOAT", "tensorShape": {"dim": [{"size": "3"}, {"size": "3"}, {"size": "64"}, {"size": "64"}]}}}, "dtype": {"type": "DT_FLOAT"}}}, {"name": "unknown_46", "op": "Const", "attr": {"value": {"tensor": {"dtype": "DT_FLOAT", "tensorShape": {"dim": [{"size": "64"}]}}}, "dtype": {"type": "DT_FLOAT"}}}, {"name": "unknown_47", "op": "Const", "attr": {"value": {"tensor": {"dtype": "DT_FLOAT", "tensorShape": {"dim": [{"size": "3"}, {"size": "3"}, {"size": "64"}, {"size": "64"}]}}}, "dtype": {"type": "DT_FLOAT"}}}, {"name": "unknown_48", "op": "Const", "attr": {"value": {"tensor": {"dtype": "DT_FLOAT", "tensorShape": {"dim": [{"size": "64"}]}}}, "dtype": {"type": "DT_FLOAT"}}}, {"name": "unknown_49", "op": "Const", "attr": {"value": {"tensor": {"dtype": "DT_FLOAT", "tensorShape": {"dim": [{"size": "3"}, {"size": "3"}, {"size": "64"}, {"size": "64"}]}}}, "dtype": {"type": "DT_FLOAT"}}}, {"name": "unknown_50", "op": "Const", "attr": {"value": {"tensor": {"dtype": "DT_FLOAT", "tensorShape": {"dim": [{"size": "64"}]}}}, "dtype": {"type": "DT_FLOAT"}}}, {"name": "PartitionedCall/model_59/tf.concat_24/concat/axis", "op": "Const", "attr": {"value": {"tensor": {"dtype": "DT_INT32", "tensorShape": {}}}, "dtype": {"type": "DT_INT32"}}}, {"name": "unknown_53", "op": "Const", "attr": {"value": {"tensor": {"dtype": "DT_FLOAT", "tensorShape": {"dim": [{"size": "1"}, {"size": "1"}, {"size": "256"}, {"size": "128"}]}}}, "dtype": {"type": "DT_FLOAT"}}}, {"name": "unknown_54", "op": "Const", "attr": {"value": {"tensor": {"dtype": "DT_FLOAT", "tensorShape": {"dim": [{"size": "128"}]}}}, "dtype": {"type": "DT_FLOAT"}}}, {"name": "unknown_55", "op": "Const", "attr": {"value": {"tensor": {"dtype": "DT_INT32", "tensorShape": {"dim": [{"size": "4"}, {"size": "2"}]}}}, "dtype": {"type": "DT_INT32"}}}, {"name": "unknown_56", "op": "Const", "attr": {"value": {"tensor": {"dtype": "DT_FLOAT", "tensorShape": {"dim": [{"size": "3"}, {"size": "3"}, {"size": "128"}, {"size": "256"}]}}}, "dtype": {"type": "DT_FLOAT"}}}, {"name": "unknown_57", "op": "Const", "attr": {"value": {"tensor": {"dtype": "DT_FLOAT", "tensorShape": {"dim": [{"size": "256"}]}}}, "dtype": {"type": "DT_FLOAT"}}}, {"name": "unknown_58", "op": "Const", "attr": {"value": {"tensor": {"dtype": "DT_FLOAT", "tensorShape": {"dim": [{"size": "1"}, {"size": "1"}, {"size": "256"}, {"size": "256"}]}}}, "dtype": {"type": "DT_FLOAT"}}}, {"name": "unknown_59", "op": "Const", "attr": {"value": {"tensor": {"dtype": "DT_FLOAT", "tensorShape": {"dim": [{"size": "256"}]}}}, "dtype": {"type": "DT_FLOAT"}}}, {"name": "unknown_60", "op": "Const", "attr": {"value": {"tensor": {"dtype": "DT_INT64", "tensorShape": {"dim": [{"size": "4"}]}}}, "dtype": {"type": "DT_INT64"}}}, {"name": "unknown_61", "op": "Const", "attr": {"value": {"tensor": {"dtype": "DT_INT64", "tensorShape": {"dim": [{"size": "4"}]}}}, "dtype": {"type": "DT_INT64"}}}, {"name": "PartitionedCall/model_59/tf.strided_slice_27/ones_like", "op": "Const", "attr": {"value": {"tensor": {"dtype": "DT_INT64", "tensorShape": {"dim": [{"size": "4"}]}}}, "dtype": {"type": "DT_INT64"}}}, {"name": "unknown_62", "op": "Const", "attr": {"value": {"tensor": {"dtype": "DT_FLOAT", "tensorShape": {"dim": [{"size": "3"}, {"size": "3"}, {"size": "128"}, {"size": "128"}]}}}, "dtype": {"type": "DT_FLOAT"}}}, {"name": "unknown_63", "op": "Const", "attr": {"value": {"tensor": {"dtype": "DT_FLOAT", "tensorShape": {"dim": [{"size": "128"}]}}}, "dtype": {"type": "DT_FLOAT"}}}, {"name": "unknown_64", "op": "Const", "attr": {"value": {"tensor": {"dtype": "DT_FLOAT", "tensorShape": {"dim": [{"size": "3"}, {"size": "3"}, {"size": "128"}, {"size": "128"}]}}}, "dtype": {"type": "DT_FLOAT"}}}, {"name": "unknown_65", "op": "Const", "attr": {"value": {"tensor": {"dtype": "DT_FLOAT", "tensorShape": {"dim": [{"size": "128"}]}}}, "dtype": {"type": "DT_FLOAT"}}}, {"name": "PartitionedCall/model_59/tf.concat_25/concat/axis", "op": "Const", "attr": {"value": {"tensor": {"dtype": "DT_INT32", "tensorShape": {}}}, "dtype": {"type": "DT_INT32"}}}, {"name": "unknown_68", "op": "Const", "attr": {"value": {"tensor": {"dtype": "DT_FLOAT", "tensorShape": {"dim": [{"size": "1"}, {"size": "1"}, {"size": "384"}, {"size": "256"}]}}}, "dtype": {"type": "DT_FLOAT"}}}, {"name": "unknown_69", "op": "Const", "attr": {"value": {"tensor": {"dtype": "DT_FLOAT", "tensorShape": {"dim": [{"size": "256"}]}}}, "dtype": {"type": "DT_FLOAT"}}}, {"name": "unknown_70", "op": "Const", "attr": {"value": {"tensor": {"dtype": "DT_FLOAT", "tensorShape": {"dim": [{"size": "1"}, {"size": "1"}, {"size": "256"}, {"size": "128"}]}}}, "dtype": {"type": "DT_FLOAT"}}}, {"name": "unknown_71", "op": "Const", "attr": {"value": {"tensor": {"dtype": "DT_FLOAT", "tensorShape": {"dim": [{"size": "128"}]}}}, "dtype": {"type": "DT_FLOAT"}}}, {"name": "PartitionedCall/model_59/tf.concat_26/concat/axis", "op": "Const", "attr": {"value": {"tensor": {"dtype": "DT_INT32", "tensorShape": {}}}, "dtype": {"type": "DT_INT32"}}}, {"name": "unknown_72", "op": "Const", "attr": {"value": {"tensor": {"dtype": "DT_FLOAT", "tensorShape": {"dim": [{"size": "1"}, {"size": "1"}, {"size": "512"}, {"size": "256"}]}}}, "dtype": {"type": "DT_FLOAT"}}}, {"name": "unknown_73", "op": "Const", "attr": {"value": {"tensor": {"dtype": "DT_FLOAT", "tensorShape": {"dim": [{"size": "256"}]}}}, "dtype": {"type": "DT_FLOAT"}}}, {"name": "PartitionedCall/model_59/tf.concat_33/concat/axis", "op": "Const", "attr": {"value": {"tensor": {"dtype": "DT_INT32", "tensorShape": {}}}, "dtype": {"type": "DT_INT32"}}}, {"name": "unknown_116", "op": "Const", "attr": {"value": {"tensor": {"dtype": "DT_FLOAT", "tensorShape": {"dim": [{"size": "1"}, {"size": "1"}, {"size": "384"}, {"size": "256"}]}}}, "dtype": {"type": "DT_FLOAT"}}}, {"name": "unknown_117", "op": "Const", "attr": {"value": {"tensor": {"dtype": "DT_FLOAT", "tensorShape": {"dim": [{"size": "256"}]}}}, "dtype": {"type": "DT_FLOAT"}}}, {"name": "unknown_118", "op": "Const", "attr": {"value": {"tensor": {"dtype": "DT_INT64", "tensorShape": {"dim": [{"size": "4"}]}}}, "dtype": {"type": "DT_INT64"}}}, {"name": "unknown_119", "op": "Const", "attr": {"value": {"tensor": {"dtype": "DT_INT64", "tensorShape": {"dim": [{"size": "4"}]}}}, "dtype": {"type": "DT_INT64"}}}, {"name": "PartitionedCall/model_59/tf.strided_slice_35/ones_like", "op": "Const", "attr": {"value": {"tensor": {"dtype": "DT_INT64", "tensorShape": {"dim": [{"size": "4"}]}}}, "dtype": {"type": "DT_INT64"}}}, {"name": "unknown_120", "op": "Const", "attr": {"value": {"tensor": {"dtype": "DT_FLOAT", "tensorShape": {"dim": [{"size": "3"}, {"size": "3"}, {"size": "128"}, {"size": "128"}]}}}, "dtype": {"type": "DT_FLOAT"}}}, {"name": "unknown_121", "op": "Const", "attr": {"value": {"tensor": {"dtype": "DT_FLOAT", "tensorShape": {"dim": [{"size": "128"}]}}}, "dtype": {"type": "DT_FLOAT"}}}, {"name": "unknown_122", "op": "Const", "attr": {"value": {"tensor": {"dtype": "DT_FLOAT", "tensorShape": {"dim": [{"size": "3"}, {"size": "3"}, {"size": "128"}, {"size": "128"}]}}}, "dtype": {"type": "DT_FLOAT"}}}, {"name": "unknown_123", "op": "Const", "attr": {"value": {"tensor": {"dtype": "DT_FLOAT", "tensorShape": {"dim": [{"size": "128"}]}}}, "dtype": {"type": "DT_FLOAT"}}}, {"name": "PartitionedCall/model_59/tf.concat_34/concat/axis", "op": "Const", "attr": {"value": {"tensor": {"dtype": "DT_INT32", "tensorShape": {}}}, "dtype": {"type": "DT_INT32"}}}, {"name": "unknown_126", "op": "Const", "attr": {"value": {"tensor": {"dtype": "DT_FLOAT", "tensorShape": {"dim": [{"size": "1"}, {"size": "1"}, {"size": "384"}, {"size": "256"}]}}}, "dtype": {"type": "DT_FLOAT"}}}, {"name": "unknown_127", "op": "Const", "attr": {"value": {"tensor": {"dtype": "DT_FLOAT", "tensorShape": {"dim": [{"size": "256"}]}}}, "dtype": {"type": "DT_FLOAT"}}}, {"name": "unknown_140", "op": "Const", "attr": {"value": {"tensor": {"dtype": "DT_FLOAT", "tensorShape": {"dim": [{"size": "3"}, {"size": "3"}, {"size": "256"}, {"size": "16"}]}}}, "dtype": {"type": "DT_FLOAT"}}}, {"name": "unknown_146", "op": "Const", "attr": {"value": {"tensor": {"dtype": "DT_FLOAT", "tensorShape": {"dim": [{"size": "16"}]}}}, "dtype": {"type": "DT_FLOAT"}}}, {"name": "unknown_152", "op": "Const", "attr": {"value": {"tensor": {"dtype": "DT_FLOAT", "tensorShape": {"dim": [{"size": "3"}, {"size": "3"}, {"size": "16"}, {"size": "16"}]}}}, "dtype": {"type": "DT_FLOAT"}}}, {"name": "unknown_155", "op": "Const", "attr": {"value": {"tensor": {"dtype": "DT_FLOAT", "tensorShape": {"dim": [{"size": "16"}]}}}, "dtype": {"type": "DT_FLOAT"}}}, {"name": "unknown_164", "op": "Const", "attr": {"value": {"tensor": {"dtype": "DT_FLOAT", "tensorShape": {"dim": [{"size": "1"}, {"size": "1"}, {"size": "16"}, {"size": "9"}]}}}, "dtype": {"type": "DT_FLOAT"}}}, {"name": "unknown_167", "op": "Const", "attr": {"value": {"tensor": {"dtype": "DT_FLOAT", "tensorShape": {"dim": [{"size": "9"}]}}}, "dtype": {"type": "DT_FLOAT"}}}, {"name": "PartitionedCall/model_59/tf.compat.v1.transpose_244/transpose/perm", "op": "Const", "attr": {"value": {"tensor": {"dtype": "DT_INT32", "tensorShape": {"dim": [{"size": "4"}]}}}, "dtype": {"type": "DT_INT32"}}}, {"name": "PartitionedCall/model_59/tf.reshape_65/Reshape/shape", "op": "Const", "attr": {"value": {"tensor": {"dtype": "DT_INT32", "tensorShape": {"dim": [{"size": "3"}]}}}, "dtype": {"type": "DT_INT32"}}}, {"name": "PartitionedCall/model_59/tf.concat_37/concat/axis", "op": "Const", "attr": {"value": {"tensor": {"dtype": "DT_INT32", "tensorShape": {}}}, "dtype": {"type": "DT_INT32"}}}, {"name": "PartitionedCall/model_59/tf.reshape_71/Reshape/shape", "op": "Const", "attr": {"value": {"tensor": {"dtype": "DT_INT32", "tensorShape": {"dim": [{"size": "4"}]}}}, "dtype": {"type": "DT_INT32"}}}, {"name": "unknown_191", "op": "Const", "attr": {"value": {"tensor": {"dtype": "DT_INT64", "tensorShape": {"dim": [{"size": "4"}]}}}, "dtype": {"type": "DT_INT64"}}}, {"name": "unknown_192", "op": "Const", "attr": {"value": {"tensor": {"dtype": "DT_INT64", "tensorShape": {"dim": [{"size": "4"}]}}}, "dtype": {"type": "DT_INT64"}}}, {"name": "PartitionedCall/model_59/tf.strided_slice_37/StridedSlice/strides", "op": "Const", "attr": {"value": {"tensor": {"dtype": "DT_INT64", "tensorShape": {"dim": [{"size": "4"}]}}}, "dtype": {"type": "DT_INT64"}}}, {"name": "PartitionedCall/model_59/tf.concat_38/concat/axis", "op": "Const", "attr": {"value": {"tensor": {"dtype": "DT_INT32", "tensorShape": {}}}, "dtype": {"type": "DT_INT32"}}}, {"name": "PartitionedCall/model_59/tf.reshape_77/Reshape/shape", "op": "Const", "attr": {"value": {"tensor": {"dtype": "DT_INT32", "tensorShape": {"dim": [{"size": "3"}]}}}, "dtype": {"type": "DT_INT32"}}}, {"name": "PartitionedCall/model_59/output0/concat/axis", "op": "Const", "attr": {"value": {"tensor": {"dtype": "DT_INT32", "tensorShape": {}}}, "dtype": {"type": "DT_INT32"}}}, {"name": "images", "op": "Placeholder", "attr": {"shape": {"shape": {"dim": [{"size": "1"}, {"size": "640"}, {"size": "640"}, {"size": "3"}]}}, "dtype": {"type": "DT_FLOAT"}}}, {"name": "PartitionedCall/model_59/tf.compat.v1.pad_7/Pad", "op": "Pad", "input": ["images", "unknown"], "attr": {"Tpaddings": {"type": "DT_INT32"}, "T": {"type": "DT_FLOAT"}}}, {"name": "PartitionedCall/model_59/tf.math.add_87/Add", "op": "_FusedConv2D", "input": ["PartitionedCall/model_59/tf.compat.v1.pad_7/Pad", "unknown_0", "unknown_1"], "device": "/device:CPU:0", "attr": {"num_host_args": {"i": "0"}, "data_format": {"s": "TkhXQw=="}, "filter_format": {"s": "SFdJTw=="}, "fused_ops": {"list": {"s": ["Qmlhc0FkZA=="]}}, "num_args": {"i": "1"}, "strides": {"list": {"i": ["1", "2", "2", "1"]}}, "TArgs": {"list": {"type": ["DT_FLOAT"]}}, "padding": {"s": "VkFMSUQ="}, "use_cudnn_on_gpu": {"b": true}, "leakyrelu_alpha": {"f": 0.2}, "epsilon": {"f": 0.0}, "T": {"type": "DT_FLOAT"}, "explicit_paddings": {"list": {}}, "dilations": {"list": {"i": ["1", "1", "1", "1"]}}}}, {"name": "PartitionedCall/model_59/tf.math.sigmoid_64/Sigmoid", "op": "Sigmoid", "input": ["PartitionedCall/model_59/tf.math.add_87/Add"], "attr": {"T": {"type": "DT_FLOAT"}}}, {"name": "PartitionedCall/model_59/tf.math.multiply_279/Mul", "op": "Mul", "input": ["PartitionedCall/model_59/tf.math.add_87/Add", "PartitionedCall/model_59/tf.math.sigmoid_64/Sigmoid"], "attr": {"T": {"type": "DT_FLOAT"}}}, {"name": "PartitionedCall/model_59/tf.compat.v1.pad_8/Pad", "op": "Pad", "input": ["PartitionedCall/model_59/tf.math.multiply_279/Mul", "unknown_2"], "attr": {"Tpaddings": {"type": "DT_INT32"}, "T": {"type": "DT_FLOAT"}}}, {"name": "PartitionedCall/model_59/tf.math.add_88/Add", "op": "_FusedConv2D", "input": ["PartitionedCall/model_59/tf.compat.v1.pad_8/Pad", "unknown_3", "unknown_4"], "device": "/device:CPU:0", "attr": {"num_host_args": {"i": "0"}, "data_format": {"s": "TkhXQw=="}, "filter_format": {"s": "SFdJTw=="}, "fused_ops": {"list": {"s": ["Qmlhc0FkZA=="]}}, "num_args": {"i": "1"}, "strides": {"list": {"i": ["1", "2", "2", "1"]}}, "TArgs": {"list": {"type": ["DT_FLOAT"]}}, "padding": {"s": "VkFMSUQ="}, "use_cudnn_on_gpu": {"b": true}, "leakyrelu_alpha": {"f": 0.2}, "epsilon": {"f": 0.0}, "T": {"type": "DT_FLOAT"}, "explicit_paddings": {"list": {}}, "dilations": {"list": {"i": ["1", "1", "1", "1"]}}}}, {"name": "PartitionedCall/model_59/tf.math.sigmoid_65/Sigmoid", "op": "Sigmoid", "input": ["PartitionedCall/model_59/tf.math.add_88/Add"], "attr": {"T": {"type": "DT_FLOAT"}}}, {"name": "PartitionedCall/model_59/tf.math.multiply_283/Mul", "op": "Mul", "input": ["PartitionedCall/model_59/tf.math.add_88/Add", "PartitionedCall/model_59/tf.math.sigmoid_65/Sigmoid"], "attr": {"T": {"type": "DT_FLOAT"}}}, {"name": "PartitionedCall/model_59/tf.math.add_89/Add", "op": "_FusedConv2D", "input": ["PartitionedCall/model_59/tf.math.multiply_283/Mul", "unknown_5", "unknown_6"], "device": "/device:CPU:0", "attr": {"num_host_args": {"i": "0"}, "data_format": {"s": "TkhXQw=="}, "filter_format": {"s": "SFdJTw=="}, "fused_ops": {"list": {"s": ["Qmlhc0FkZA=="]}}, "num_args": {"i": "1"}, "strides": {"list": {"i": ["1", "1", "1", "1"]}}, "TArgs": {"list": {"type": ["DT_FLOAT"]}}, "padding": {"s": "U0FNRQ=="}, "use_cudnn_on_gpu": {"b": true}, "leakyrelu_alpha": {"f": 0.2}, "epsilon": {"f": 0.0}, "T": {"type": "DT_FLOAT"}, "explicit_paddings": {"list": {}}, "dilations": {"list": {"i": ["1", "1", "1", "1"]}}}}, {"name": "PartitionedCall/model_59/tf.math.sigmoid_66/Sigmoid", "op": "Sigmoid", "input": ["PartitionedCall/model_59/tf.math.add_89/Add"], "attr": {"T": {"type": "DT_FLOAT"}}}, {"name": "PartitionedCall/model_59/tf.math.multiply_287/Mul", "op": "Mul", "input": ["PartitionedCall/model_59/tf.math.add_89/Add", "PartitionedCall/model_59/tf.math.sigmoid_66/Sigmoid"], "attr": {"T": {"type": "DT_FLOAT"}}}, {"name": "PartitionedCall/model_59/tf.strided_slice_20/StridedSlice", "op": "StridedSlice", "input": ["PartitionedCall/model_59/tf.math.multiply_287/Mul", "unknown_13", "unknown_14", "PartitionedCall/model_59/tf.strided_slice_20/ones_like"], "attr": {"shrink_axis_mask": {"i": "0"}, "new_axis_mask": {"i": "0"}, "Index": {"type": "DT_INT64"}, "begin_mask": {"i": "15"}, "end_mask": {"i": "7"}, "T": {"type": "DT_FLOAT"}, "ellipsis_mask": {"i": "0"}}}, {"name": "PartitionedCall/model_59/tf.strided_slice_21/StridedSlice", "op": "StridedSlice", "input": ["PartitionedCall/model_59/tf.math.multiply_287/Mul", "unknown_7", "unknown_8", "PartitionedCall/model_59/tf.strided_slice_21/ones_like"], "attr": {"shrink_axis_mask": {"i": "0"}, "new_axis_mask": {"i": "0"}, "Index": {"type": "DT_INT64"}, "begin_mask": {"i": "7"}, "end_mask": {"i": "7"}, "T": {"type": "DT_FLOAT"}, "ellipsis_mask": {"i": "0"}}}, {"name": "PartitionedCall/model_59/tf.math.add_90/Add", "op": "_FusedConv2D", "input": ["PartitionedCall/model_59/tf.strided_slice_21/StridedSlice", "unknown_9", "unknown_10"], "device": "/device:CPU:0", "attr": {"num_host_args": {"i": "0"}, "data_format": {"s": "TkhXQw=="}, "filter_format": {"s": "SFdJTw=="}, "fused_ops": {"list": {"s": ["Qmlhc0FkZA=="]}}, "num_args": {"i": "1"}, "strides": {"list": {"i": ["1", "1", "1", "1"]}}, "TArgs": {"list": {"type": ["DT_FLOAT"]}}, "padding": {"s": "U0FNRQ=="}, "use_cudnn_on_gpu": {"b": true}, "leakyrelu_alpha": {"f": 0.2}, "epsilon": {"f": 0.0}, "T": {"type": "DT_FLOAT"}, "explicit_paddings": {"list": {}}, "dilations": {"list": {"i": ["1", "1", "1", "1"]}}}}, {"name": "PartitionedCall/model_59/tf.math.sigmoid_67/Sigmoid", "op": "Sigmoid", "input": ["PartitionedCall/model_59/tf.math.add_90/Add"], "attr": {"T": {"type": "DT_FLOAT"}}}, {"name": "PartitionedCall/model_59/tf.math.multiply_291/Mul", "op": "Mul", "input": ["PartitionedCall/model_59/tf.math.add_90/Add", "PartitionedCall/model_59/tf.math.sigmoid_67/Sigmoid"], "attr": {"T": {"type": "DT_FLOAT"}}}, {"name": "PartitionedCall/model_59/tf.math.add_91/Add", "op": "_FusedConv2D", "input": ["PartitionedCall/model_59/tf.math.multiply_291/Mul", "unknown_11", "unknown_12"], "device": "/device:CPU:0", "attr": {"num_host_args": {"i": "0"}, "data_format": {"s": "TkhXQw=="}, "filter_format": {"s": "SFdJTw=="}, "strides": {"list": {"i": ["1", "1", "1", "1"]}}, "num_args": {"i": "1"}, "fused_ops": {"list": {"s": ["Qmlhc0FkZA=="]}}, "TArgs": {"list": {"type": ["DT_FLOAT"]}}, "padding": {"s": "U0FNRQ=="}, "use_cudnn_on_gpu": {"b": true}, "leakyrelu_alpha": {"f": 0.2}, "epsilon": {"f": 0.0}, "T": {"type": "DT_FLOAT"}, "explicit_paddings": {"list": {}}, "dilations": {"list": {"i": ["1", "1", "1", "1"]}}}}, {"name": "PartitionedCall/model_59/tf.math.sigmoid_68/Sigmoid", "op": "Sigmoid", "input": ["PartitionedCall/model_59/tf.math.add_91/Add"], "attr": {"T": {"type": "DT_FLOAT"}}}, {"name": "PartitionedCall/model_59/tf.math.multiply_295/Mul", "op": "Mul", "input": ["PartitionedCall/model_59/tf.math.add_91/Add", "PartitionedCall/model_59/tf.math.sigmoid_68/Sigmoid"], "attr": {"T": {"type": "DT_FLOAT"}}}, {"name": "PartitionedCall/model_59/tf.math.add_93/Add", "op": "AddV2", "input": ["PartitionedCall/model_59/tf.strided_slice_21/StridedSlice", "PartitionedCall/model_59/tf.math.multiply_295/Mul"], "attr": {"T": {"type": "DT_FLOAT"}}}, {"name": "PartitionedCall/model_59/tf.concat_22/concat", "op": "ConcatV2", "input": ["PartitionedCall/model_59/tf.strided_slice_20/StridedSlice", "PartitionedCall/model_59/tf.strided_slice_21/StridedSlice", "PartitionedCall/model_59/tf.math.add_93/Add", "PartitionedCall/model_59/tf.concat_22/concat/axis"], "attr": {"N": {"i": "3"}, "Tidx": {"type": "DT_INT32"}, "T": {"type": "DT_FLOAT"}}}, {"name": "PartitionedCall/model_59/tf.math.add_94/Add", "op": "_FusedConv2D", "input": ["PartitionedCall/model_59/tf.concat_22/concat", "unknown_15", "unknown_16"], "device": "/device:CPU:0", "attr": {"num_host_args": {"i": "0"}, "data_format": {"s": "TkhXQw=="}, "filter_format": {"s": "SFdJTw=="}, "strides": {"list": {"i": ["1", "1", "1", "1"]}}, "num_args": {"i": "1"}, "fused_ops": {"list": {"s": ["Qmlhc0FkZA=="]}}, "TArgs": {"list": {"type": ["DT_FLOAT"]}}, "padding": {"s": "U0FNRQ=="}, "use_cudnn_on_gpu": {"b": true}, "leakyrelu_alpha": {"f": 0.2}, "epsilon": {"f": 0.0}, "T": {"type": "DT_FLOAT"}, "explicit_paddings": {"list": {}}, "dilations": {"list": {"i": ["1", "1", "1", "1"]}}}}, {"name": "PartitionedCall/model_59/tf.math.sigmoid_69/Sigmoid", "op": "Sigmoid", "input": ["PartitionedCall/model_59/tf.math.add_94/Add"], "attr": {"T": {"type": "DT_FLOAT"}}}, {"name": "PartitionedCall/model_59/tf.math.multiply_301/Mul", "op": "Mul", "input": ["PartitionedCall/model_59/tf.math.add_94/Add", "PartitionedCall/model_59/tf.math.sigmoid_69/Sigmoid"], "attr": {"T": {"type": "DT_FLOAT"}}}, {"name": "PartitionedCall/model_59/tf.compat.v1.pad_9/Pad", "op": "Pad", "input": ["PartitionedCall/model_59/tf.math.multiply_301/Mul", "unknown_17"], "attr": {"Tpaddings": {"type": "DT_INT32"}, "T": {"type": "DT_FLOAT"}}}, {"name": "PartitionedCall/model_59/tf.math.add_95/Add", "op": "_FusedConv2D", "input": ["PartitionedCall/model_59/tf.compat.v1.pad_9/Pad", "unknown_18", "unknown_19"], "device": "/device:CPU:0", "attr": {"num_host_args": {"i": "0"}, "data_format": {"s": "TkhXQw=="}, "filter_format": {"s": "SFdJTw=="}, "fused_ops": {"list": {"s": ["Qmlhc0FkZA=="]}}, "num_args": {"i": "1"}, "strides": {"list": {"i": ["1", "2", "2", "1"]}}, "TArgs": {"list": {"type": ["DT_FLOAT"]}}, "padding": {"s": "VkFMSUQ="}, "use_cudnn_on_gpu": {"b": true}, "leakyrelu_alpha": {"f": 0.2}, "epsilon": {"f": 0.0}, "T": {"type": "DT_FLOAT"}, "explicit_paddings": {"list": {}}, "dilations": {"list": {"i": ["1", "1", "1", "1"]}}}}, {"name": "PartitionedCall/model_59/tf.math.sigmoid_70/Sigmoid", "op": "Sigmoid", "input": ["PartitionedCall/model_59/tf.math.add_95/Add"], "attr": {"T": {"type": "DT_FLOAT"}}}, {"name": "PartitionedCall/model_59/tf.math.multiply_305/Mul", "op": "Mul", "input": ["PartitionedCall/model_59/tf.math.add_95/Add", "PartitionedCall/model_59/tf.math.sigmoid_70/Sigmoid"], "attr": {"T": {"type": "DT_FLOAT"}}}, {"name": "PartitionedCall/model_59/tf.math.add_96/Add", "op": "_FusedConv2D", "input": ["PartitionedCall/model_59/tf.math.multiply_305/Mul", "unknown_20", "unknown_21"], "device": "/device:CPU:0", "attr": {"num_host_args": {"i": "0"}, "data_format": {"s": "TkhXQw=="}, "filter_format": {"s": "SFdJTw=="}, "strides": {"list": {"i": ["1", "1", "1", "1"]}}, "num_args": {"i": "1"}, "fused_ops": {"list": {"s": ["Qmlhc0FkZA=="]}}, "TArgs": {"list": {"type": ["DT_FLOAT"]}}, "padding": {"s": "U0FNRQ=="}, "use_cudnn_on_gpu": {"b": true}, "leakyrelu_alpha": {"f": 0.2}, "epsilon": {"f": 0.0}, "T": {"type": "DT_FLOAT"}, "explicit_paddings": {"list": {}}, "dilations": {"list": {"i": ["1", "1", "1", "1"]}}}}, {"name": "PartitionedCall/model_59/tf.math.sigmoid_71/Sigmoid", "op": "Sigmoid", "input": ["PartitionedCall/model_59/tf.math.add_96/Add"], "attr": {"T": {"type": "DT_FLOAT"}}}, {"name": "PartitionedCall/model_59/tf.math.multiply_309/Mul", "op": "Mul", "input": ["PartitionedCall/model_59/tf.math.add_96/Add", "PartitionedCall/model_59/tf.math.sigmoid_71/Sigmoid"], "attr": {"T": {"type": "DT_FLOAT"}}}, {"name": "PartitionedCall/model_59/tf.strided_slice_22/StridedSlice", "op": "StridedSlice", "input": ["PartitionedCall/model_59/tf.math.multiply_309/Mul", "unknown_32", "unknown_33", "PartitionedCall/model_59/tf.strided_slice_22/ones_like"], "attr": {"shrink_axis_mask": {"i": "0"}, "new_axis_mask": {"i": "0"}, "Index": {"type": "DT_INT64"}, "begin_mask": {"i": "15"}, "end_mask": {"i": "7"}, "T": {"type": "DT_FLOAT"}, "ellipsis_mask": {"i": "0"}}}, {"name": "PartitionedCall/model_59/tf.strided_slice_23/StridedSlice", "op": "StridedSlice", "input": ["PartitionedCall/model_59/tf.math.multiply_309/Mul", "unknown_22", "unknown_23", "PartitionedCall/model_59/tf.strided_slice_23/ones_like"], "attr": {"shrink_axis_mask": {"i": "0"}, "Index": {"type": "DT_INT64"}, "new_axis_mask": {"i": "0"}, "begin_mask": {"i": "7"}, "T": {"type": "DT_FLOAT"}, "end_mask": {"i": "7"}, "ellipsis_mask": {"i": "0"}}}, {"name": "PartitionedCall/model_59/tf.math.add_97/Add", "op": "_FusedConv2D", "input": ["PartitionedCall/model_59/tf.strided_slice_23/StridedSlice", "unknown_24", "unknown_25"], "device": "/device:CPU:0", "attr": {"num_host_args": {"i": "0"}, "data_format": {"s": "TkhXQw=="}, "filter_format": {"s": "SFdJTw=="}, "fused_ops": {"list": {"s": ["Qmlhc0FkZA=="]}}, "num_args": {"i": "1"}, "strides": {"list": {"i": ["1", "1", "1", "1"]}}, "TArgs": {"list": {"type": ["DT_FLOAT"]}}, "padding": {"s": "U0FNRQ=="}, "use_cudnn_on_gpu": {"b": true}, "leakyrelu_alpha": {"f": 0.2}, "epsilon": {"f": 0.0}, "T": {"type": "DT_FLOAT"}, "explicit_paddings": {"list": {}}, "dilations": {"list": {"i": ["1", "1", "1", "1"]}}}}, {"name": "PartitionedCall/model_59/tf.math.sigmoid_72/Sigmoid", "op": "Sigmoid", "input": ["PartitionedCall/model_59/tf.math.add_97/Add"], "attr": {"T": {"type": "DT_FLOAT"}}}, {"name": "PartitionedCall/model_59/tf.math.multiply_313/Mul", "op": "Mul", "input": ["PartitionedCall/model_59/tf.math.add_97/Add", "PartitionedCall/model_59/tf.math.sigmoid_72/Sigmoid"], "attr": {"T": {"type": "DT_FLOAT"}}}, {"name": "PartitionedCall/model_59/tf.math.add_98/Add", "op": "_FusedConv2D", "input": ["PartitionedCall/model_59/tf.math.multiply_313/Mul", "unknown_26", "unknown_27"], "device": "/device:CPU:0", "attr": {"num_host_args": {"i": "0"}, "data_format": {"s": "TkhXQw=="}, "filter_format": {"s": "SFdJTw=="}, "fused_ops": {"list": {"s": ["Qmlhc0FkZA=="]}}, "num_args": {"i": "1"}, "strides": {"list": {"i": ["1", "1", "1", "1"]}}, "TArgs": {"list": {"type": ["DT_FLOAT"]}}, "padding": {"s": "U0FNRQ=="}, "use_cudnn_on_gpu": {"b": true}, "leakyrelu_alpha": {"f": 0.2}, "epsilon": {"f": 0.0}, "T": {"type": "DT_FLOAT"}, "explicit_paddings": {"list": {}}, "dilations": {"list": {"i": ["1", "1", "1", "1"]}}}}, {"name": "PartitionedCall/model_59/tf.math.sigmoid_73/Sigmoid", "op": "Sigmoid", "input": ["PartitionedCall/model_59/tf.math.add_98/Add"], "attr": {"T": {"type": "DT_FLOAT"}}}, {"name": "PartitionedCall/model_59/tf.math.multiply_317/Mul", "op": "Mul", "input": ["PartitionedCall/model_59/tf.math.add_98/Add", "PartitionedCall/model_59/tf.math.sigmoid_73/Sigmoid"], "attr": {"T": {"type": "DT_FLOAT"}}}, {"name": "PartitionedCall/model_59/tf.math.add_100/Add", "op": "AddV2", "input": ["PartitionedCall/model_59/tf.strided_slice_23/StridedSlice", "PartitionedCall/model_59/tf.math.multiply_317/Mul"], "attr": {"T": {"type": "DT_FLOAT"}}}, {"name": "PartitionedCall/model_59/tf.math.add_101/Add", "op": "_FusedConv2D", "input": ["PartitionedCall/model_59/tf.math.add_100/Add", "unknown_28", "unknown_29"], "device": "/device:CPU:0", "attr": {"num_host_args": {"i": "0"}, "data_format": {"s": "TkhXQw=="}, "filter_format": {"s": "SFdJTw=="}, "strides": {"list": {"i": ["1", "1", "1", "1"]}}, "num_args": {"i": "1"}, "fused_ops": {"list": {"s": ["Qmlhc0FkZA=="]}}, "TArgs": {"list": {"type": ["DT_FLOAT"]}}, "padding": {"s": "U0FNRQ=="}, "use_cudnn_on_gpu": {"b": true}, "leakyrelu_alpha": {"f": 0.2}, "epsilon": {"f": 0.0}, "T": {"type": "DT_FLOAT"}, "explicit_paddings": {"list": {}}, "dilations": {"list": {"i": ["1", "1", "1", "1"]}}}}, {"name": "PartitionedCall/model_59/tf.math.sigmoid_74/Sigmoid", "op": "Sigmoid", "input": ["PartitionedCall/model_59/tf.math.add_101/Add"], "attr": {"T": {"type": "DT_FLOAT"}}}, {"name": "PartitionedCall/model_59/tf.math.multiply_323/Mul", "op": "Mul", "input": ["PartitionedCall/model_59/tf.math.add_101/Add", "PartitionedCall/model_59/tf.math.sigmoid_74/Sigmoid"], "attr": {"T": {"type": "DT_FLOAT"}}}, {"name": "PartitionedCall/model_59/tf.math.add_102/Add", "op": "_FusedConv2D", "input": ["PartitionedCall/model_59/tf.math.multiply_323/Mul", "unknown_30", "unknown_31"], "device": "/device:CPU:0", "attr": {"num_host_args": {"i": "0"}, "data_format": {"s": "TkhXQw=="}, "filter_format": {"s": "SFdJTw=="}, "fused_ops": {"list": {"s": ["Qmlhc0FkZA=="]}}, "num_args": {"i": "1"}, "strides": {"list": {"i": ["1", "1", "1", "1"]}}, "TArgs": {"list": {"type": ["DT_FLOAT"]}}, "padding": {"s": "U0FNRQ=="}, "use_cudnn_on_gpu": {"b": true}, "leakyrelu_alpha": {"f": 0.2}, "epsilon": {"f": 0.0}, "T": {"type": "DT_FLOAT"}, "explicit_paddings": {"list": {}}, "dilations": {"list": {"i": ["1", "1", "1", "1"]}}}}, {"name": "PartitionedCall/model_59/tf.math.sigmoid_75/Sigmoid", "op": "Sigmoid", "input": ["PartitionedCall/model_59/tf.math.add_102/Add"], "attr": {"T": {"type": "DT_FLOAT"}}}, {"name": "PartitionedCall/model_59/tf.math.multiply_327/Mul", "op": "Mul", "input": ["PartitionedCall/model_59/tf.math.add_102/Add", "PartitionedCall/model_59/tf.math.sigmoid_75/Sigmoid"], "attr": {"T": {"type": "DT_FLOAT"}}}, {"name": "PartitionedCall/model_59/tf.math.add_104/Add", "op": "AddV2", "input": ["PartitionedCall/model_59/tf.math.add_100/Add", "PartitionedCall/model_59/tf.math.multiply_327/Mul"], "attr": {"T": {"type": "DT_FLOAT"}}}, {"name": "PartitionedCall/model_59/tf.concat_23/concat", "op": "ConcatV2", "input": ["PartitionedCall/model_59/tf.strided_slice_22/StridedSlice", "PartitionedCall/model_59/tf.strided_slice_23/StridedSlice", "PartitionedCall/model_59/tf.math.add_100/Add", "PartitionedCall/model_59/tf.math.add_104/Add", "PartitionedCall/model_59/tf.concat_23/concat/axis"], "attr": {"N": {"i": "4"}, "Tidx": {"type": "DT_INT32"}, "T": {"type": "DT_FLOAT"}}}, {"name": "PartitionedCall/model_59/tf.math.add_105/Add", "op": "_FusedConv2D", "input": ["PartitionedCall/model_59/tf.concat_23/concat", "unknown_34", "unknown_35"], "device": "/device:CPU:0", "attr": {"num_host_args": {"i": "0"}, "data_format": {"s": "TkhXQw=="}, "filter_format": {"s": "SFdJTw=="}, "strides": {"list": {"i": ["1", "1", "1", "1"]}}, "num_args": {"i": "1"}, "fused_ops": {"list": {"s": ["Qmlhc0FkZA=="]}}, "TArgs": {"list": {"type": ["DT_FLOAT"]}}, "padding": {"s": "U0FNRQ=="}, "use_cudnn_on_gpu": {"b": true}, "leakyrelu_alpha": {"f": 0.2}, "epsilon": {"f": 0.0}, "T": {"type": "DT_FLOAT"}, "explicit_paddings": {"list": {}}, "dilations": {"list": {"i": ["1", "1", "1", "1"]}}}}, {"name": "PartitionedCall/model_59/tf.math.sigmoid_76/Sigmoid", "op": "Sigmoid", "input": ["PartitionedCall/model_59/tf.math.add_105/Add"], "attr": {"T": {"type": "DT_FLOAT"}}}, {"name": "PartitionedCall/model_59/tf.math.multiply_333/Mul", "op": "Mul", "input": ["PartitionedCall/model_59/tf.math.add_105/Add", "PartitionedCall/model_59/tf.math.sigmoid_76/Sigmoid"], "attr": {"T": {"type": "DT_FLOAT"}}}, {"name": "PartitionedCall/model_59/tf.compat.v1.pad_10/Pad", "op": "Pad", "input": ["PartitionedCall/model_59/tf.math.multiply_333/Mul", "unknown_36"], "attr": {"Tpaddings": {"type": "DT_INT32"}, "T": {"type": "DT_FLOAT"}}}, {"name": "PartitionedCall/model_59/tf.math.add_106/Add", "op": "_FusedConv2D", "input": ["PartitionedCall/model_59/tf.compat.v1.pad_10/Pad", "unknown_37", "unknown_38"], "device": "/device:CPU:0", "attr": {"num_host_args": {"i": "0"}, "data_format": {"s": "TkhXQw=="}, "filter_format": {"s": "SFdJTw=="}, "fused_ops": {"list": {"s": ["Qmlhc0FkZA=="]}}, "num_args": {"i": "1"}, "strides": {"list": {"i": ["1", "2", "2", "1"]}}, "TArgs": {"list": {"type": ["DT_FLOAT"]}}, "padding": {"s": "VkFMSUQ="}, "use_cudnn_on_gpu": {"b": true}, "leakyrelu_alpha": {"f": 0.2}, "epsilon": {"f": 0.0}, "T": {"type": "DT_FLOAT"}, "explicit_paddings": {"list": {}}, "dilations": {"list": {"i": ["1", "1", "1", "1"]}}}}, {"name": "PartitionedCall/model_59/tf.math.sigmoid_77/Sigmoid", "op": "Sigmoid", "input": ["PartitionedCall/model_59/tf.math.add_106/Add"], "attr": {"T": {"type": "DT_FLOAT"}}}, {"name": "PartitionedCall/model_59/tf.math.multiply_337/Mul", "op": "Mul", "input": ["PartitionedCall/model_59/tf.math.add_106/Add", "PartitionedCall/model_59/tf.math.sigmoid_77/Sigmoid"], "attr": {"T": {"type": "DT_FLOAT"}}}, {"name": "PartitionedCall/model_59/tf.math.add_107/Add", "op": "_FusedConv2D", "input": ["PartitionedCall/model_59/tf.math.multiply_337/Mul", "unknown_39", "unknown_40"], "device": "/device:CPU:0", "attr": {"num_host_args": {"i": "0"}, "data_format": {"s": "TkhXQw=="}, "filter_format": {"s": "SFdJTw=="}, "fused_ops": {"list": {"s": ["Qmlhc0FkZA=="]}}, "num_args": {"i": "1"}, "strides": {"list": {"i": ["1", "1", "1", "1"]}}, "TArgs": {"list": {"type": ["DT_FLOAT"]}}, "padding": {"s": "U0FNRQ=="}, "use_cudnn_on_gpu": {"b": true}, "leakyrelu_alpha": {"f": 0.2}, "epsilon": {"f": 0.0}, "T": {"type": "DT_FLOAT"}, "explicit_paddings": {"list": {}}, "dilations": {"list": {"i": ["1", "1", "1", "1"]}}}}, {"name": "PartitionedCall/model_59/tf.math.sigmoid_78/Sigmoid", "op": "Sigmoid", "input": ["PartitionedCall/model_59/tf.math.add_107/Add"], "attr": {"T": {"type": "DT_FLOAT"}}}, {"name": "PartitionedCall/model_59/tf.math.multiply_341/Mul", "op": "Mul", "input": ["PartitionedCall/model_59/tf.math.add_107/Add", "PartitionedCall/model_59/tf.math.sigmoid_78/Sigmoid"], "attr": {"T": {"type": "DT_FLOAT"}}}, {"name": "PartitionedCall/model_59/tf.strided_slice_24/StridedSlice", "op": "StridedSlice", "input": ["PartitionedCall/model_59/tf.math.multiply_341/Mul", "unknown_51", "unknown_52", "PartitionedCall/model_59/tf.strided_slice_24/ones_like"], "attr": {"shrink_axis_mask": {"i": "0"}, "Index": {"type": "DT_INT64"}, "new_axis_mask": {"i": "0"}, "begin_mask": {"i": "15"}, "T": {"type": "DT_FLOAT"}, "end_mask": {"i": "7"}, "ellipsis_mask": {"i": "0"}}}, {"name": "PartitionedCall/model_59/tf.strided_slice_25/StridedSlice", "op": "StridedSlice", "input": ["PartitionedCall/model_59/tf.math.multiply_341/Mul", "unknown_41", "unknown_42", "PartitionedCall/model_59/tf.strided_slice_25/ones_like"], "attr": {"shrink_axis_mask": {"i": "0"}, "Index": {"type": "DT_INT64"}, "new_axis_mask": {"i": "0"}, "begin_mask": {"i": "7"}, "end_mask": {"i": "7"}, "T": {"type": "DT_FLOAT"}, "ellipsis_mask": {"i": "0"}}}, {"name": "PartitionedCall/model_59/tf.math.add_108/Add", "op": "_FusedConv2D", "input": ["PartitionedCall/model_59/tf.strided_slice_25/StridedSlice", "unknown_43", "unknown_44"], "device": "/device:CPU:0", "attr": {"num_host_args": {"i": "0"}, "data_format": {"s": "TkhXQw=="}, "filter_format": {"s": "SFdJTw=="}, "strides": {"list": {"i": ["1", "1", "1", "1"]}}, "num_args": {"i": "1"}, "fused_ops": {"list": {"s": ["Qmlhc0FkZA=="]}}, "TArgs": {"list": {"type": ["DT_FLOAT"]}}, "padding": {"s": "U0FNRQ=="}, "use_cudnn_on_gpu": {"b": true}, "leakyrelu_alpha": {"f": 0.2}, "epsilon": {"f": 0.0}, "T": {"type": "DT_FLOAT"}, "explicit_paddings": {"list": {}}, "dilations": {"list": {"i": ["1", "1", "1", "1"]}}}}, {"name": "PartitionedCall/model_59/tf.math.sigmoid_79/Sigmoid", "op": "Sigmoid", "input": ["PartitionedCall/model_59/tf.math.add_108/Add"], "attr": {"T": {"type": "DT_FLOAT"}}}, {"name": "PartitionedCall/model_59/tf.math.multiply_345/Mul", "op": "Mul", "input": ["PartitionedCall/model_59/tf.math.add_108/Add", "PartitionedCall/model_59/tf.math.sigmoid_79/Sigmoid"], "attr": {"T": {"type": "DT_FLOAT"}}}, {"name": "PartitionedCall/model_59/tf.math.add_109/Add", "op": "_FusedConv2D", "input": ["PartitionedCall/model_59/tf.math.multiply_345/Mul", "unknown_45", "unknown_46"], "device": "/device:CPU:0", "attr": {"num_host_args": {"i": "0"}, "data_format": {"s": "TkhXQw=="}, "filter_format": {"s": "SFdJTw=="}, "fused_ops": {"list": {"s": ["Qmlhc0FkZA=="]}}, "num_args": {"i": "1"}, "strides": {"list": {"i": ["1", "1", "1", "1"]}}, "TArgs": {"list": {"type": ["DT_FLOAT"]}}, "padding": {"s": "U0FNRQ=="}, "use_cudnn_on_gpu": {"b": true}, "leakyrelu_alpha": {"f": 0.2}, "epsilon": {"f": 0.0}, "T": {"type": "DT_FLOAT"}, "explicit_paddings": {"list": {}}, "dilations": {"list": {"i": ["1", "1", "1", "1"]}}}}, {"name": "PartitionedCall/model_59/tf.math.sigmoid_80/Sigmoid", "op": "Sigmoid", "input": ["PartitionedCall/model_59/tf.math.add_109/Add"], "attr": {"T": {"type": "DT_FLOAT"}}}, {"name": "PartitionedCall/model_59/tf.math.multiply_349/Mul", "op": "Mul", "input": ["PartitionedCall/model_59/tf.math.add_109/Add", "PartitionedCall/model_59/tf.math.sigmoid_80/Sigmoid"], "attr": {"T": {"type": "DT_FLOAT"}}}, {"name": "PartitionedCall/model_59/tf.math.add_111/Add", "op": "AddV2", "input": ["PartitionedCall/model_59/tf.strided_slice_25/StridedSlice", "PartitionedCall/model_59/tf.math.multiply_349/Mul"], "attr": {"T": {"type": "DT_FLOAT"}}}, {"name": "PartitionedCall/model_59/tf.math.add_112/Add", "op": "_FusedConv2D", "input": ["PartitionedCall/model_59/tf.math.add_111/Add", "unknown_47", "unknown_48"], "device": "/device:CPU:0", "attr": {"num_host_args": {"i": "0"}, "data_format": {"s": "TkhXQw=="}, "filter_format": {"s": "SFdJTw=="}, "strides": {"list": {"i": ["1", "1", "1", "1"]}}, "num_args": {"i": "1"}, "fused_ops": {"list": {"s": ["Qmlhc0FkZA=="]}}, "TArgs": {"list": {"type": ["DT_FLOAT"]}}, "padding": {"s": "U0FNRQ=="}, "use_cudnn_on_gpu": {"b": true}, "leakyrelu_alpha": {"f": 0.2}, "epsilon": {"f": 0.0}, "T": {"type": "DT_FLOAT"}, "explicit_paddings": {"list": {}}, "dilations": {"list": {"i": ["1", "1", "1", "1"]}}}}, {"name": "PartitionedCall/model_59/tf.math.sigmoid_81/Sigmoid", "op": "Sigmoid", "input": ["PartitionedCall/model_59/tf.math.add_112/Add"], "attr": {"T": {"type": "DT_FLOAT"}}}, {"name": "PartitionedCall/model_59/tf.math.multiply_355/Mul", "op": "Mul", "input": ["PartitionedCall/model_59/tf.math.add_112/Add", "PartitionedCall/model_59/tf.math.sigmoid_81/Sigmoid"], "attr": {"T": {"type": "DT_FLOAT"}}}, {"name": "PartitionedCall/model_59/tf.math.add_113/Add", "op": "_FusedConv2D", "input": ["PartitionedCall/model_59/tf.math.multiply_355/Mul", "unknown_49", "unknown_50"], "device": "/device:CPU:0", "attr": {"num_host_args": {"i": "0"}, "data_format": {"s": "TkhXQw=="}, "filter_format": {"s": "SFdJTw=="}, "strides": {"list": {"i": ["1", "1", "1", "1"]}}, "num_args": {"i": "1"}, "fused_ops": {"list": {"s": ["Qmlhc0FkZA=="]}}, "TArgs": {"list": {"type": ["DT_FLOAT"]}}, "padding": {"s": "U0FNRQ=="}, "use_cudnn_on_gpu": {"b": true}, "leakyrelu_alpha": {"f": 0.2}, "epsilon": {"f": 0.0}, "T": {"type": "DT_FLOAT"}, "explicit_paddings": {"list": {}}, "dilations": {"list": {"i": ["1", "1", "1", "1"]}}}}, {"name": "PartitionedCall/model_59/tf.math.sigmoid_82/Sigmoid", "op": "Sigmoid", "input": ["PartitionedCall/model_59/tf.math.add_113/Add"], "attr": {"T": {"type": "DT_FLOAT"}}}, {"name": "PartitionedCall/model_59/tf.math.multiply_359/Mul", "op": "Mul", "input": ["PartitionedCall/model_59/tf.math.add_113/Add", "PartitionedCall/model_59/tf.math.sigmoid_82/Sigmoid"], "attr": {"T": {"type": "DT_FLOAT"}}}, {"name": "PartitionedCall/model_59/tf.math.add_115/Add", "op": "AddV2", "input": ["PartitionedCall/model_59/tf.math.add_111/Add", "PartitionedCall/model_59/tf.math.multiply_359/Mul"], "attr": {"T": {"type": "DT_FLOAT"}}}, {"name": "PartitionedCall/model_59/tf.concat_24/concat", "op": "ConcatV2", "input": ["PartitionedCall/model_59/tf.strided_slice_24/StridedSlice", "PartitionedCall/model_59/tf.strided_slice_25/StridedSlice", "PartitionedCall/model_59/tf.math.add_111/Add", "PartitionedCall/model_59/tf.math.add_115/Add", "PartitionedCall/model_59/tf.concat_24/concat/axis"], "attr": {"N": {"i": "4"}, "T": {"type": "DT_FLOAT"}, "Tidx": {"type": "DT_INT32"}}}, {"name": "PartitionedCall/model_59/tf.math.add_116/Add", "op": "_FusedConv2D", "input": ["PartitionedCall/model_59/tf.concat_24/concat", "unknown_53", "unknown_54"], "device": "/device:CPU:0", "attr": {"num_host_args": {"i": "0"}, "data_format": {"s": "TkhXQw=="}, "filter_format": {"s": "SFdJTw=="}, "strides": {"list": {"i": ["1", "1", "1", "1"]}}, "num_args": {"i": "1"}, "fused_ops": {"list": {"s": ["Qmlhc0FkZA=="]}}, "TArgs": {"list": {"type": ["DT_FLOAT"]}}, "padding": {"s": "U0FNRQ=="}, "use_cudnn_on_gpu": {"b": true}, "leakyrelu_alpha": {"f": 0.2}, "epsilon": {"f": 0.0}, "T": {"type": "DT_FLOAT"}, "explicit_paddings": {"list": {}}, "dilations": {"list": {"i": ["1", "1", "1", "1"]}}}}, {"name": "PartitionedCall/model_59/tf.math.sigmoid_83/Sigmoid", "op": "Sigmoid", "input": ["PartitionedCall/model_59/tf.math.add_116/Add"], "attr": {"T": {"type": "DT_FLOAT"}}}, {"name": "PartitionedCall/model_59/tf.math.multiply_365/Mul", "op": "Mul", "input": ["PartitionedCall/model_59/tf.math.add_116/Add", "PartitionedCall/model_59/tf.math.sigmoid_83/Sigmoid"], "attr": {"T": {"type": "DT_FLOAT"}}}, {"name": "PartitionedCall/model_59/tf.compat.v1.pad_11/Pad", "op": "Pad", "input": ["PartitionedCall/model_59/tf.math.multiply_365/Mul", "unknown_55"], "attr": {"Tpaddings": {"type": "DT_INT32"}, "T": {"type": "DT_FLOAT"}}}, {"name": "PartitionedCall/model_59/tf.math.add_117/Add", "op": "_FusedConv2D", "input": ["PartitionedCall/model_59/tf.compat.v1.pad_11/Pad", "unknown_56", "unknown_57"], "device": "/device:CPU:0", "attr": {"num_host_args": {"i": "0"}, "data_format": {"s": "TkhXQw=="}, "filter_format": {"s": "SFdJTw=="}, "strides": {"list": {"i": ["1", "2", "2", "1"]}}, "num_args": {"i": "1"}, "fused_ops": {"list": {"s": ["Qmlhc0FkZA=="]}}, "TArgs": {"list": {"type": ["DT_FLOAT"]}}, "padding": {"s": "VkFMSUQ="}, "use_cudnn_on_gpu": {"b": true}, "leakyrelu_alpha": {"f": 0.2}, "epsilon": {"f": 0.0}, "T": {"type": "DT_FLOAT"}, "explicit_paddings": {"list": {}}, "dilations": {"list": {"i": ["1", "1", "1", "1"]}}}}, {"name": "PartitionedCall/model_59/tf.math.sigmoid_84/Sigmoid", "op": "Sigmoid", "input": ["PartitionedCall/model_59/tf.math.add_117/Add"], "attr": {"T": {"type": "DT_FLOAT"}}}, {"name": "PartitionedCall/model_59/tf.math.multiply_369/Mul", "op": "Mul", "input": ["PartitionedCall/model_59/tf.math.add_117/Add", "PartitionedCall/model_59/tf.math.sigmoid_84/Sigmoid"], "attr": {"T": {"type": "DT_FLOAT"}}}, {"name": "PartitionedCall/model_59/tf.math.add_118/Add", "op": "_FusedConv2D", "input": ["PartitionedCall/model_59/tf.math.multiply_369/Mul", "unknown_58", "unknown_59"], "device": "/device:CPU:0", "attr": {"num_host_args": {"i": "0"}, "data_format": {"s": "TkhXQw=="}, "filter_format": {"s": "SFdJTw=="}, "fused_ops": {"list": {"s": ["Qmlhc0FkZA=="]}}, "num_args": {"i": "1"}, "strides": {"list": {"i": ["1", "1", "1", "1"]}}, "TArgs": {"list": {"type": ["DT_FLOAT"]}}, "padding": {"s": "U0FNRQ=="}, "use_cudnn_on_gpu": {"b": true}, "leakyrelu_alpha": {"f": 0.2}, "epsilon": {"f": 0.0}, "T": {"type": "DT_FLOAT"}, "explicit_paddings": {"list": {}}, "dilations": {"list": {"i": ["1", "1", "1", "1"]}}}}, {"name": "PartitionedCall/model_59/tf.math.sigmoid_85/Sigmoid", "op": "Sigmoid", "input": ["PartitionedCall/model_59/tf.math.add_118/Add"], "attr": {"T": {"type": "DT_FLOAT"}}}, {"name": "PartitionedCall/model_59/tf.math.multiply_373/Mul", "op": "Mul", "input": ["PartitionedCall/model_59/tf.math.add_118/Add", "PartitionedCall/model_59/tf.math.sigmoid_85/Sigmoid"], "attr": {"T": {"type": "DT_FLOAT"}}}, {"name": "PartitionedCall/model_59/tf.strided_slice_26/StridedSlice", "op": "StridedSlice", "input": ["PartitionedCall/model_59/tf.math.multiply_373/Mul", "unknown_66", "unknown_67", "PartitionedCall/model_59/tf.strided_slice_26/ones_like"], "attr": {"shrink_axis_mask": {"i": "0"}, "Index": {"type": "DT_INT64"}, "new_axis_mask": {"i": "0"}, "begin_mask": {"i": "15"}, "end_mask": {"i": "7"}, "T": {"type": "DT_FLOAT"}, "ellipsis_mask": {"i": "0"}}}, {"name": "PartitionedCall/model_59/tf.strided_slice_27/StridedSlice", "op": "StridedSlice", "input": ["PartitionedCall/model_59/tf.math.multiply_373/Mul", "unknown_60", "unknown_61", "PartitionedCall/model_59/tf.strided_slice_27/ones_like"], "attr": {"shrink_axis_mask": {"i": "0"}, "Index": {"type": "DT_INT64"}, "new_axis_mask": {"i": "0"}, "begin_mask": {"i": "7"}, "end_mask": {"i": "7"}, "T": {"type": "DT_FLOAT"}, "ellipsis_mask": {"i": "0"}}}, {"name": "PartitionedCall/model_59/tf.math.add_119/Add", "op": "_FusedConv2D", "input": ["PartitionedCall/model_59/tf.strided_slice_27/StridedSlice", "unknown_62", "unknown_63"], "device": "/device:CPU:0", "attr": {"num_host_args": {"i": "0"}, "data_format": {"s": "TkhXQw=="}, "filter_format": {"s": "SFdJTw=="}, "fused_ops": {"list": {"s": ["Qmlhc0FkZA=="]}}, "num_args": {"i": "1"}, "strides": {"list": {"i": ["1", "1", "1", "1"]}}, "TArgs": {"list": {"type": ["DT_FLOAT"]}}, "padding": {"s": "U0FNRQ=="}, "use_cudnn_on_gpu": {"b": true}, "leakyrelu_alpha": {"f": 0.2}, "epsilon": {"f": 0.0}, "T": {"type": "DT_FLOAT"}, "explicit_paddings": {"list": {}}, "dilations": {"list": {"i": ["1", "1", "1", "1"]}}}}, {"name": "PartitionedCall/model_59/tf.math.sigmoid_86/Sigmoid", "op": "Sigmoid", "input": ["PartitionedCall/model_59/tf.math.add_119/Add"], "attr": {"T": {"type": "DT_FLOAT"}}}, {"name": "PartitionedCall/model_59/tf.math.multiply_377/Mul", "op": "Mul", "input": ["PartitionedCall/model_59/tf.math.add_119/Add", "PartitionedCall/model_59/tf.math.sigmoid_86/Sigmoid"], "attr": {"T": {"type": "DT_FLOAT"}}}, {"name": "PartitionedCall/model_59/tf.math.add_120/Add", "op": "_FusedConv2D", "input": ["PartitionedCall/model_59/tf.math.multiply_377/Mul", "unknown_64", "unknown_65"], "device": "/device:CPU:0", "attr": {"num_host_args": {"i": "0"}, "data_format": {"s": "TkhXQw=="}, "filter_format": {"s": "SFdJTw=="}, "fused_ops": {"list": {"s": ["Qmlhc0FkZA=="]}}, "num_args": {"i": "1"}, "strides": {"list": {"i": ["1", "1", "1", "1"]}}, "TArgs": {"list": {"type": ["DT_FLOAT"]}}, "padding": {"s": "U0FNRQ=="}, "use_cudnn_on_gpu": {"b": true}, "leakyrelu_alpha": {"f": 0.2}, "epsilon": {"f": 0.0}, "T": {"type": "DT_FLOAT"}, "explicit_paddings": {"list": {}}, "dilations": {"list": {"i": ["1", "1", "1", "1"]}}}}, {"name": "PartitionedCall/model_59/tf.math.sigmoid_87/Sigmoid", "op": "Sigmoid", "input": ["PartitionedCall/model_59/tf.math.add_120/Add"], "attr": {"T": {"type": "DT_FLOAT"}}}, {"name": "PartitionedCall/model_59/tf.math.multiply_381/Mul", "op": "Mul", "input": ["PartitionedCall/model_59/tf.math.add_120/Add", "PartitionedCall/model_59/tf.math.sigmoid_87/Sigmoid"], "attr": {"T": {"type": "DT_FLOAT"}}}, {"name": "PartitionedCall/model_59/tf.math.add_122/Add", "op": "AddV2", "input": ["PartitionedCall/model_59/tf.strided_slice_27/StridedSlice", "PartitionedCall/model_59/tf.math.multiply_381/Mul"], "attr": {"T": {"type": "DT_FLOAT"}}}, {"name": "PartitionedCall/model_59/tf.concat_25/concat", "op": "ConcatV2", "input": ["PartitionedCall/model_59/tf.strided_slice_26/StridedSlice", "PartitionedCall/model_59/tf.strided_slice_27/StridedSlice", "PartitionedCall/model_59/tf.math.add_122/Add", "PartitionedCall/model_59/tf.concat_25/concat/axis"], "attr": {"N": {"i": "3"}, "Tidx": {"type": "DT_INT32"}, "T": {"type": "DT_FLOAT"}}}, {"name": "PartitionedCall/model_59/tf.math.add_123/Add", "op": "_FusedConv2D", "input": ["PartitionedCall/model_59/tf.concat_25/concat", "unknown_68", "unknown_69"], "device": "/device:CPU:0", "attr": {"num_host_args": {"i": "0"}, "data_format": {"s": "TkhXQw=="}, "filter_format": {"s": "SFdJTw=="}, "strides": {"list": {"i": ["1", "1", "1", "1"]}}, "num_args": {"i": "1"}, "fused_ops": {"list": {"s": ["Qmlhc0FkZA=="]}}, "TArgs": {"list": {"type": ["DT_FLOAT"]}}, "padding": {"s": "U0FNRQ=="}, "use_cudnn_on_gpu": {"b": true}, "leakyrelu_alpha": {"f": 0.2}, "epsilon": {"f": 0.0}, "T": {"type": "DT_FLOAT"}, "explicit_paddings": {"list": {}}, "dilations": {"list": {"i": ["1", "1", "1", "1"]}}}}, {"name": "PartitionedCall/model_59/tf.math.sigmoid_88/Sigmoid", "op": "Sigmoid", "input": ["PartitionedCall/model_59/tf.math.add_123/Add"], "attr": {"T": {"type": "DT_FLOAT"}}}, {"name": "PartitionedCall/model_59/tf.math.multiply_387/Mul", "op": "Mul", "input": ["PartitionedCall/model_59/tf.math.add_123/Add", "PartitionedCall/model_59/tf.math.sigmoid_88/Sigmoid"], "attr": {"T": {"type": "DT_FLOAT"}}}, {"name": "PartitionedCall/model_59/tf.math.add_124/Add", "op": "_FusedConv2D", "input": ["PartitionedCall/model_59/tf.math.multiply_387/Mul", "unknown_70", "unknown_71"], "device": "/device:CPU:0", "attr": {"num_host_args": {"i": "0"}, "data_format": {"s": "TkhXQw=="}, "filter_format": {"s": "SFdJTw=="}, "fused_ops": {"list": {"s": ["Qmlhc0FkZA=="]}}, "num_args": {"i": "1"}, "strides": {"list": {"i": ["1", "1", "1", "1"]}}, "TArgs": {"list": {"type": ["DT_FLOAT"]}}, "padding": {"s": "U0FNRQ=="}, "use_cudnn_on_gpu": {"b": true}, "leakyrelu_alpha": {"f": 0.2}, "epsilon": {"f": 0.0}, "T": {"type": "DT_FLOAT"}, "explicit_paddings": {"list": {}}, "dilations": {"list": {"i": ["1", "1", "1", "1"]}}}}, {"name": "PartitionedCall/model_59/tf.compat.v1.nn.pool_3/max_pool", "op": "MaxPool", "input": ["PartitionedCall/model_59/tf.math.add_124/Add"], "attr": {"ksize": {"list": {"i": ["1", "5", "5", "1"]}}, "data_format": {"s": "TkhXQw=="}, "T": {"type": "DT_FLOAT"}, "explicit_paddings": {"list": {}}, "padding": {"s": "U0FNRQ=="}, "strides": {"list": {"i": ["1", "1", "1", "1"]}}}}, {"name": "PartitionedCall/model_59/tf.compat.v1.nn.pool_4/max_pool", "op": "MaxPool", "input": ["PartitionedCall/model_59/tf.compat.v1.nn.pool_3/max_pool"], "attr": {"ksize": {"list": {"i": ["1", "5", "5", "1"]}}, "data_format": {"s": "TkhXQw=="}, "T": {"type": "DT_FLOAT"}, "explicit_paddings": {"list": {}}, "padding": {"s": "U0FNRQ=="}, "strides": {"list": {"i": ["1", "1", "1", "1"]}}}}, {"name": "PartitionedCall/model_59/tf.compat.v1.nn.pool_5/max_pool", "op": "MaxPool", "input": ["PartitionedCall/model_59/tf.compat.v1.nn.pool_4/max_pool"], "attr": {"ksize": {"list": {"i": ["1", "5", "5", "1"]}}, "data_format": {"s": "TkhXQw=="}, "T": {"type": "DT_FLOAT"}, "explicit_paddings": {"list": {}}, "padding": {"s": "U0FNRQ=="}, "strides": {"list": {"i": ["1", "1", "1", "1"]}}}}, {"name": "PartitionedCall/model_59/tf.concat_26/concat", "op": "ConcatV2", "input": ["PartitionedCall/model_59/tf.math.add_124/Add", "PartitionedCall/model_59/tf.compat.v1.nn.pool_3/max_pool", "PartitionedCall/model_59/tf.compat.v1.nn.pool_4/max_pool", "PartitionedCall/model_59/tf.compat.v1.nn.pool_5/max_pool", "PartitionedCall/model_59/tf.concat_26/concat/axis"], "attr": {"N": {"i": "4"}, "Tidx": {"type": "DT_INT32"}, "T": {"type": "DT_FLOAT"}}}, {"name": "PartitionedCall/model_59/tf.math.add_125/Add", "op": "_FusedConv2D", "input": ["PartitionedCall/model_59/tf.concat_26/concat", "unknown_72", "unknown_73"], "device": "/device:CPU:0", "attr": {"num_host_args": {"i": "0"}, "data_format": {"s": "TkhXQw=="}, "filter_format": {"s": "SFdJTw=="}, "strides": {"list": {"i": ["1", "1", "1", "1"]}}, "num_args": {"i": "1"}, "fused_ops": {"list": {"s": ["Qmlhc0FkZA=="]}}, "TArgs": {"list": {"type": ["DT_FLOAT"]}}, "padding": {"s": "U0FNRQ=="}, "use_cudnn_on_gpu": {"b": true}, "leakyrelu_alpha": {"f": 0.2}, "epsilon": {"f": 0.0}, "T": {"type": "DT_FLOAT"}, "explicit_paddings": {"list": {}}, "dilations": {"list": {"i": ["1", "1", "1", "1"]}}}}, {"name": "PartitionedCall/model_59/tf.math.sigmoid_89/Sigmoid", "op": "Sigmoid", "input": ["PartitionedCall/model_59/tf.math.add_125/Add"], "attr": {"T": {"type": "DT_FLOAT"}}}, {"name": "PartitionedCall/model_59/tf.math.multiply_391/Mul", "op": "Mul", "input": ["PartitionedCall/model_59/tf.math.add_125/Add", "PartitionedCall/model_59/tf.math.sigmoid_89/Sigmoid"], "attr": {"T": {"type": "DT_FLOAT"}}}, {"name": "PartitionedCall/model_59/tf.image.resize_2/resize/ResizeNearestNeighbor", "op": "ResizeNearestNeighbor", "input": ["PartitionedCall/model_59/tf.math.multiply_391/Mul", "PartitionedCall/model_59/tf.image.resize_2/resize/size"], "attr": {"T": {"type": "DT_FLOAT"}, "align_corners": {"b": false}, "half_pixel_centers": {"b": true}}}, {"name": "PartitionedCall/model_59/tf.concat_27/concat", "op": "ConcatV2", "input": ["PartitionedCall/model_59/tf.image.resize_2/resize/ResizeNearestNeighbor", "PartitionedCall/model_59/tf.math.multiply_365/Mul", "PartitionedCall/model_59/tf.concat_27/concat/axis"], "attr": {"N": {"i": "2"}, "Tidx": {"type": "DT_INT32"}, "T": {"type": "DT_FLOAT"}}}, {"name": "PartitionedCall/model_59/tf.math.add_126/Add", "op": "_FusedConv2D", "input": ["PartitionedCall/model_59/tf.concat_27/concat", "unknown_74", "unknown_75"], "device": "/device:CPU:0", "attr": {"num_host_args": {"i": "0"}, "data_format": {"s": "TkhXQw=="}, "filter_format": {"s": "SFdJTw=="}, "fused_ops": {"list": {"s": ["Qmlhc0FkZA=="]}}, "num_args": {"i": "1"}, "strides": {"list": {"i": ["1", "1", "1", "1"]}}, "TArgs": {"list": {"type": ["DT_FLOAT"]}}, "padding": {"s": "U0FNRQ=="}, "use_cudnn_on_gpu": {"b": true}, "leakyrelu_alpha": {"f": 0.2}, "epsilon": {"f": 0.0}, "T": {"type": "DT_FLOAT"}, "explicit_paddings": {"list": {}}, "dilations": {"list": {"i": ["1", "1", "1", "1"]}}}}, {"name": "PartitionedCall/model_59/tf.math.sigmoid_90/Sigmoid", "op": "Sigmoid", "input": ["PartitionedCall/model_59/tf.math.add_126/Add"], "attr": {"T": {"type": "DT_FLOAT"}}}, {"name": "PartitionedCall/model_59/tf.math.multiply_395/Mul", "op": "Mul", "input": ["PartitionedCall/model_59/tf.math.add_126/Add", "PartitionedCall/model_59/tf.math.sigmoid_90/Sigmoid"], "attr": {"T": {"type": "DT_FLOAT"}}}, {"name": "PartitionedCall/model_59/tf.strided_slice_28/StridedSlice", "op": "StridedSlice", "input": ["PartitionedCall/model_59/tf.math.multiply_395/Mul", "unknown_82", "unknown_83", "PartitionedCall/model_59/tf.strided_slice_28/ones_like"], "attr": {"shrink_axis_mask": {"i": "0"}, "Index": {"type": "DT_INT64"}, "new_axis_mask": {"i": "0"}, "begin_mask": {"i": "15"}, "end_mask": {"i": "7"}, "T": {"type": "DT_FLOAT"}, "ellipsis_mask": {"i": "0"}}}, {"name": "PartitionedCall/model_59/tf.strided_slice_29/StridedSlice", "op": "StridedSlice", "input": ["PartitionedCall/model_59/tf.math.multiply_395/Mul", "unknown_76", "unknown_77", "PartitionedCall/model_59/tf.strided_slice_29/ones_like"], "attr": {"shrink_axis_mask": {"i": "0"}, "Index": {"type": "DT_INT64"}, "new_axis_mask": {"i": "0"}, "begin_mask": {"i": "7"}, "end_mask": {"i": "7"}, "T": {"type": "DT_FLOAT"}, "ellipsis_mask": {"i": "0"}}}, {"name": "PartitionedCall/model_59/tf.math.add_127/Add", "op": "_FusedConv2D", "input": ["PartitionedCall/model_59/tf.strided_slice_29/StridedSlice", "unknown_78", "unknown_79"], "device": "/device:CPU:0", "attr": {"num_host_args": {"i": "0"}, "data_format": {"s": "TkhXQw=="}, "filter_format": {"s": "SFdJTw=="}, "strides": {"list": {"i": ["1", "1", "1", "1"]}}, "num_args": {"i": "1"}, "fused_ops": {"list": {"s": ["Qmlhc0FkZA=="]}}, "TArgs": {"list": {"type": ["DT_FLOAT"]}}, "padding": {"s": "U0FNRQ=="}, "use_cudnn_on_gpu": {"b": true}, "leakyrelu_alpha": {"f": 0.2}, "epsilon": {"f": 0.0}, "T": {"type": "DT_FLOAT"}, "explicit_paddings": {"list": {}}, "dilations": {"list": {"i": ["1", "1", "1", "1"]}}}}, {"name": "PartitionedCall/model_59/tf.math.sigmoid_91/Sigmoid", "op": "Sigmoid", "input": ["PartitionedCall/model_59/tf.math.add_127/Add"], "attr": {"T": {"type": "DT_FLOAT"}}}, {"name": "PartitionedCall/model_59/tf.math.multiply_399/Mul", "op": "Mul", "input": ["PartitionedCall/model_59/tf.math.add_127/Add", "PartitionedCall/model_59/tf.math.sigmoid_91/Sigmoid"], "attr": {"T": {"type": "DT_FLOAT"}}}, {"name": "PartitionedCall/model_59/tf.math.add_128/Add", "op": "_FusedConv2D", "input": ["PartitionedCall/model_59/tf.math.multiply_399/Mul", "unknown_80", "unknown_81"], "device": "/device:CPU:0", "attr": {"num_host_args": {"i": "0"}, "data_format": {"s": "TkhXQw=="}, "filter_format": {"s": "SFdJTw=="}, "strides": {"list": {"i": ["1", "1", "1", "1"]}}, "num_args": {"i": "1"}, "fused_ops": {"list": {"s": ["Qmlhc0FkZA=="]}}, "TArgs": {"list": {"type": ["DT_FLOAT"]}}, "padding": {"s": "U0FNRQ=="}, "use_cudnn_on_gpu": {"b": true}, "leakyrelu_alpha": {"f": 0.2}, "epsilon": {"f": 0.0}, "T": {"type": "DT_FLOAT"}, "explicit_paddings": {"list": {}}, "dilations": {"list": {"i": ["1", "1", "1", "1"]}}}}, {"name": "PartitionedCall/model_59/tf.math.sigmoid_92/Sigmoid", "op": "Sigmoid", "input": ["PartitionedCall/model_59/tf.math.add_128/Add"], "attr": {"T": {"type": "DT_FLOAT"}}}, {"name": "PartitionedCall/model_59/tf.math.multiply_403/Mul", "op": "Mul", "input": ["PartitionedCall/model_59/tf.math.add_128/Add", "PartitionedCall/model_59/tf.math.sigmoid_92/Sigmoid"], "attr": {"T": {"type": "DT_FLOAT"}}}, {"name": "PartitionedCall/model_59/tf.concat_28/concat", "op": "ConcatV2", "input": ["PartitionedCall/model_59/tf.strided_slice_28/StridedSlice", "PartitionedCall/model_59/tf.strided_slice_29/StridedSlice", "PartitionedCall/model_59/tf.math.multiply_403/Mul", "PartitionedCall/model_59/tf.concat_28/concat/axis"], "attr": {"N": {"i": "3"}, "Tidx": {"type": "DT_INT32"}, "T": {"type": "DT_FLOAT"}}}, {"name": "PartitionedCall/model_59/tf.math.add_129/Add", "op": "_FusedConv2D", "input": ["PartitionedCall/model_59/tf.concat_28/concat", "unknown_84", "unknown_85"], "device": "/device:CPU:0", "attr": {"num_host_args": {"i": "0"}, "data_format": {"s": "TkhXQw=="}, "filter_format": {"s": "SFdJTw=="}, "strides": {"list": {"i": ["1", "1", "1", "1"]}}, "num_args": {"i": "1"}, "fused_ops": {"list": {"s": ["Qmlhc0FkZA=="]}}, "TArgs": {"list": {"type": ["DT_FLOAT"]}}, "padding": {"s": "U0FNRQ=="}, "use_cudnn_on_gpu": {"b": true}, "leakyrelu_alpha": {"f": 0.2}, "epsilon": {"f": 0.0}, "T": {"type": "DT_FLOAT"}, "explicit_paddings": {"list": {}}, "dilations": {"list": {"i": ["1", "1", "1", "1"]}}}}, {"name": "PartitionedCall/model_59/tf.math.sigmoid_93/Sigmoid", "op": "Sigmoid", "input": ["PartitionedCall/model_59/tf.math.add_129/Add"], "attr": {"T": {"type": "DT_FLOAT"}}}, {"name": "PartitionedCall/model_59/tf.math.multiply_407/Mul", "op": "Mul", "input": ["PartitionedCall/model_59/tf.math.add_129/Add", "PartitionedCall/model_59/tf.math.sigmoid_93/Sigmoid"], "attr": {"T": {"type": "DT_FLOAT"}}}, {"name": "PartitionedCall/model_59/tf.image.resize_3/resize/ResizeNearestNeighbor", "op": "ResizeNearestNeighbor", "input": ["PartitionedCall/model_59/tf.math.multiply_407/Mul", "PartitionedCall/model_59/tf.image.resize_3/resize/size"], "attr": {"T": {"type": "DT_FLOAT"}, "align_corners": {"b": false}, "half_pixel_centers": {"b": true}}}, {"name": "PartitionedCall/model_59/tf.concat_29/concat", "op": "ConcatV2", "input": ["PartitionedCall/model_59/tf.image.resize_3/resize/ResizeNearestNeighbor", "PartitionedCall/model_59/tf.math.multiply_333/Mul", "PartitionedCall/model_59/tf.concat_29/concat/axis"], "attr": {"N": {"i": "2"}, "Tidx": {"type": "DT_INT32"}, "T": {"type": "DT_FLOAT"}}}, {"name": "PartitionedCall/model_59/tf.math.add_130/Add", "op": "_FusedConv2D", "input": ["PartitionedCall/model_59/tf.concat_29/concat", "unknown_86", "unknown_87"], "device": "/device:CPU:0", "attr": {"num_host_args": {"i": "0"}, "data_format": {"s": "TkhXQw=="}, "filter_format": {"s": "SFdJTw=="}, "fused_ops": {"list": {"s": ["Qmlhc0FkZA=="]}}, "num_args": {"i": "1"}, "strides": {"list": {"i": ["1", "1", "1", "1"]}}, "TArgs": {"list": {"type": ["DT_FLOAT"]}}, "padding": {"s": "U0FNRQ=="}, "use_cudnn_on_gpu": {"b": true}, "leakyrelu_alpha": {"f": 0.2}, "epsilon": {"f": 0.0}, "T": {"type": "DT_FLOAT"}, "explicit_paddings": {"list": {}}, "dilations": {"list": {"i": ["1", "1", "1", "1"]}}}}, {"name": "PartitionedCall/model_59/tf.math.sigmoid_94/Sigmoid", "op": "Sigmoid", "input": ["PartitionedCall/model_59/tf.math.add_130/Add"], "attr": {"T": {"type": "DT_FLOAT"}}}, {"name": "PartitionedCall/model_59/tf.math.multiply_411/Mul", "op": "Mul", "input": ["PartitionedCall/model_59/tf.math.add_130/Add", "PartitionedCall/model_59/tf.math.sigmoid_94/Sigmoid"], "attr": {"T": {"type": "DT_FLOAT"}}}, {"name": "PartitionedCall/model_59/tf.strided_slice_30/StridedSlice", "op": "StridedSlice", "input": ["PartitionedCall/model_59/tf.math.multiply_411/Mul", "unknown_94", "unknown_95", "PartitionedCall/model_59/tf.strided_slice_30/ones_like"], "attr": {"shrink_axis_mask": {"i": "0"}, "Index": {"type": "DT_INT64"}, "new_axis_mask": {"i": "0"}, "begin_mask": {"i": "15"}, "end_mask": {"i": "7"}, "T": {"type": "DT_FLOAT"}, "ellipsis_mask": {"i": "0"}}}, {"name": "PartitionedCall/model_59/tf.strided_slice_31/StridedSlice", "op": "StridedSlice", "input": ["PartitionedCall/model_59/tf.math.multiply_411/Mul", "unknown_88", "unknown_89", "PartitionedCall/model_59/tf.strided_slice_31/ones_like"], "attr": {"shrink_axis_mask": {"i": "0"}, "Index": {"type": "DT_INT64"}, "new_axis_mask": {"i": "0"}, "begin_mask": {"i": "7"}, "T": {"type": "DT_FLOAT"}, "end_mask": {"i": "7"}, "ellipsis_mask": {"i": "0"}}}, {"name": "PartitionedCall/model_59/tf.math.add_131/Add", "op": "_FusedConv2D", "input": ["PartitionedCall/model_59/tf.strided_slice_31/StridedSlice", "unknown_90", "unknown_91"], "device": "/device:CPU:0", "attr": {"num_host_args": {"i": "0"}, "data_format": {"s": "TkhXQw=="}, "filter_format": {"s": "SFdJTw=="}, "strides": {"list": {"i": ["1", "1", "1", "1"]}}, "num_args": {"i": "1"}, "fused_ops": {"list": {"s": ["Qmlhc0FkZA=="]}}, "TArgs": {"list": {"type": ["DT_FLOAT"]}}, "padding": {"s": "U0FNRQ=="}, "use_cudnn_on_gpu": {"b": true}, "leakyrelu_alpha": {"f": 0.2}, "epsilon": {"f": 0.0}, "T": {"type": "DT_FLOAT"}, "explicit_paddings": {"list": {}}, "dilations": {"list": {"i": ["1", "1", "1", "1"]}}}}, {"name": "PartitionedCall/model_59/tf.math.sigmoid_95/Sigmoid", "op": "Sigmoid", "input": ["PartitionedCall/model_59/tf.math.add_131/Add"], "attr": {"T": {"type": "DT_FLOAT"}}}, {"name": "PartitionedCall/model_59/tf.math.multiply_415/Mul", "op": "Mul", "input": ["PartitionedCall/model_59/tf.math.add_131/Add", "PartitionedCall/model_59/tf.math.sigmoid_95/Sigmoid"], "attr": {"T": {"type": "DT_FLOAT"}}}, {"name": "PartitionedCall/model_59/tf.math.add_132/Add", "op": "_FusedConv2D", "input": ["PartitionedCall/model_59/tf.math.multiply_415/Mul", "unknown_92", "unknown_93"], "device": "/device:CPU:0", "attr": {"num_host_args": {"i": "0"}, "data_format": {"s": "TkhXQw=="}, "filter_format": {"s": "SFdJTw=="}, "strides": {"list": {"i": ["1", "1", "1", "1"]}}, "num_args": {"i": "1"}, "fused_ops": {"list": {"s": ["Qmlhc0FkZA=="]}}, "TArgs": {"list": {"type": ["DT_FLOAT"]}}, "padding": {"s": "U0FNRQ=="}, "use_cudnn_on_gpu": {"b": true}, "leakyrelu_alpha": {"f": 0.2}, "epsilon": {"f": 0.0}, "T": {"type": "DT_FLOAT"}, "explicit_paddings": {"list": {}}, "dilations": {"list": {"i": ["1", "1", "1", "1"]}}}}, {"name": "PartitionedCall/model_59/tf.math.sigmoid_96/Sigmoid", "op": "Sigmoid", "input": ["PartitionedCall/model_59/tf.math.add_132/Add"], "attr": {"T": {"type": "DT_FLOAT"}}}, {"name": "PartitionedCall/model_59/tf.math.multiply_419/Mul", "op": "Mul", "input": ["PartitionedCall/model_59/tf.math.add_132/Add", "PartitionedCall/model_59/tf.math.sigmoid_96/Sigmoid"], "attr": {"T": {"type": "DT_FLOAT"}}}, {"name": "PartitionedCall/model_59/tf.concat_30/concat", "op": "ConcatV2", "input": ["PartitionedCall/model_59/tf.strided_slice_30/StridedSlice", "PartitionedCall/model_59/tf.strided_slice_31/StridedSlice", "PartitionedCall/model_59/tf.math.multiply_419/Mul", "PartitionedCall/model_59/tf.concat_30/concat/axis"], "attr": {"N": {"i": "3"}, "Tidx": {"type": "DT_INT32"}, "T": {"type": "DT_FLOAT"}}}, {"name": "PartitionedCall/model_59/tf.math.add_133/Add", "op": "_FusedConv2D", "input": ["PartitionedCall/model_59/tf.concat_30/concat", "unknown_96", "unknown_97"], "device": "/device:CPU:0", "attr": {"num_host_args": {"i": "0"}, "data_format": {"s": "TkhXQw=="}, "filter_format": {"s": "SFdJTw=="}, "fused_ops": {"list": {"s": ["Qmlhc0FkZA=="]}}, "num_args": {"i": "1"}, "strides": {"list": {"i": ["1", "1", "1", "1"]}}, "TArgs": {"list": {"type": ["DT_FLOAT"]}}, "padding": {"s": "U0FNRQ=="}, "use_cudnn_on_gpu": {"b": true}, "leakyrelu_alpha": {"f": 0.2}, "epsilon": {"f": 0.0}, "T": {"type": "DT_FLOAT"}, "explicit_paddings": {"list": {}}, "dilations": {"list": {"i": ["1", "1", "1", "1"]}}}}, {"name": "PartitionedCall/model_59/tf.math.sigmoid_97/Sigmoid", "op": "Sigmoid", "input": ["PartitionedCall/model_59/tf.math.add_133/Add"], "attr": {"T": {"type": "DT_FLOAT"}}}, {"name": "PartitionedCall/model_59/tf.math.multiply_423/Mul", "op": "Mul", "input": ["PartitionedCall/model_59/tf.math.add_133/Add", "PartitionedCall/model_59/tf.math.sigmoid_97/Sigmoid"], "attr": {"T": {"type": "DT_FLOAT"}}}, {"name": "PartitionedCall/model_59/tf.math.add_135/Add", "op": "_FusedConv2D", "input": ["PartitionedCall/model_59/tf.math.multiply_423/Mul", "unknown_130", "unknown_133"], "device": "/device:CPU:0", "attr": {"num_host_args": {"i": "0"}, "data_format": {"s": "TkhXQw=="}, "filter_format": {"s": "SFdJTw=="}, "fused_ops": {"list": {"s": ["Qmlhc0FkZA=="]}}, "num_args": {"i": "1"}, "strides": {"list": {"i": ["1", "1", "1", "1"]}}, "TArgs": {"list": {"type": ["DT_FLOAT"]}}, "padding": {"s": "U0FNRQ=="}, "use_cudnn_on_gpu": {"b": true}, "leakyrelu_alpha": {"f": 0.2}, "epsilon": {"f": 0.0}, "T": {"type": "DT_FLOAT"}, "explicit_paddings": {"list": {}}, "dilations": {"list": {"i": ["1", "1", "1", "1"]}}}}, {"name": "PartitionedCall/model_59/tf.math.add_136/Add", "op": "_FusedConv2D", "input": ["PartitionedCall/model_59/tf.math.multiply_423/Mul", "unknown_160", "unknown_163"], "device": "/device:CPU:0", "attr": {"num_host_args": {"i": "0"}, "data_format": {"s": "TkhXQw=="}, "filter_format": {"s": "SFdJTw=="}, "strides": {"list": {"i": ["1", "1", "1", "1"]}}, "num_args": {"i": "1"}, "fused_ops": {"list": {"s": ["Qmlhc0FkZA=="]}}, "TArgs": {"list": {"type": ["DT_FLOAT"]}}, "padding": {"s": "U0FNRQ=="}, "use_cudnn_on_gpu": {"b": true}, "leakyrelu_alpha": {"f": 0.2}, "epsilon": {"f": 0.0}, "T": {"type": "DT_FLOAT"}, "explicit_paddings": {"list": {}}, "dilations": {"list": {"i": ["1", "1", "1", "1"]}}}}, {"name": "PartitionedCall/model_59/tf.math.add_137/Add", "op": "_FusedConv2D", "input": ["PartitionedCall/model_59/tf.math.multiply_423/Mul", "unknown_142", "unknown_148"], "device": "/device:CPU:0", "attr": {"num_host_args": {"i": "0"}, "data_format": {"s": "TkhXQw=="}, "filter_format": {"s": "SFdJTw=="}, "strides": {"list": {"i": ["1", "1", "1", "1"]}}, "num_args": {"i": "1"}, "fused_ops": {"list": {"s": ["Qmlhc0FkZA=="]}}, "TArgs": {"list": {"type": ["DT_FLOAT"]}}, "padding": {"s": "U0FNRQ=="}, "use_cudnn_on_gpu": {"b": true}, "leakyrelu_alpha": {"f": 0.2}, "epsilon": {"f": 0.0}, "T": {"type": "DT_FLOAT"}, "explicit_paddings": {"list": {}}, "dilations": {"list": {"i": ["1", "1", "1", "1"]}}}}, {"name": "PartitionedCall/model_59/tf.compat.v1.pad_12/Pad", "op": "Pad", "input": ["PartitionedCall/model_59/tf.math.multiply_423/Mul", "unknown_98"], "attr": {"Tpaddings": {"type": "DT_INT32"}, "T": {"type": "DT_FLOAT"}}}, {"name": "PartitionedCall/model_59/tf.math.sigmoid_99/Sigmoid", "op": "Sigmoid", "input": ["PartitionedCall/model_59/tf.math.add_135/Add"], "attr": {"T": {"type": "DT_FLOAT"}}}, {"name": "PartitionedCall/model_59/tf.math.sigmoid_100/Sigmoid", "op": "Sigmoid", "input": ["PartitionedCall/model_59/tf.math.add_136/Add"], "attr": {"T": {"type": "DT_FLOAT"}}}, {"name": "PartitionedCall/model_59/tf.math.sigmoid_101/Sigmoid", "op": "Sigmoid", "input": ["PartitionedCall/model_59/tf.math.add_137/Add"], "attr": {"T": {"type": "DT_FLOAT"}}}, {"name": "PartitionedCall/model_59/tf.math.add_134/Add", "op": "_FusedConv2D", "input": ["PartitionedCall/model_59/tf.compat.v1.pad_12/Pad", "unknown_99", "unknown_100"], "device": "/device:CPU:0", "attr": {"num_host_args": {"i": "0"}, "data_format": {"s": "TkhXQw=="}, "filter_format": {"s": "SFdJTw=="}, "fused_ops": {"list": {"s": ["Qmlhc0FkZA=="]}}, "num_args": {"i": "1"}, "strides": {"list": {"i": ["1", "2", "2", "1"]}}, "TArgs": {"list": {"type": ["DT_FLOAT"]}}, "padding": {"s": "VkFMSUQ="}, "use_cudnn_on_gpu": {"b": true}, "leakyrelu_alpha": {"f": 0.2}, "epsilon": {"f": 0.0}, "T": {"type": "DT_FLOAT"}, "explicit_paddings": {"list": {}}, "dilations": {"list": {"i": ["1", "1", "1", "1"]}}}}, {"name": "PartitionedCall/model_59/tf.math.multiply_431/Mul", "op": "Mul", "input": ["PartitionedCall/model_59/tf.math.add_135/Add", "PartitionedCall/model_59/tf.math.sigmoid_99/Sigmoid"], "attr": {"T": {"type": "DT_FLOAT"}}}, {"name": "PartitionedCall/model_59/tf.math.multiply_435/Mul", "op": "Mul", "input": ["PartitionedCall/model_59/tf.math.add_136/Add", "PartitionedCall/model_59/tf.math.sigmoid_100/Sigmoid"], "attr": {"T": {"type": "DT_FLOAT"}}}, {"name": "PartitionedCall/model_59/tf.math.multiply_439/Mul", "op": "Mul", "input": ["PartitionedCall/model_59/tf.math.add_137/Add", "PartitionedCall/model_59/tf.math.sigmoid_101/Sigmoid"], "attr": {"T": {"type": "DT_FLOAT"}}}, {"name": "PartitionedCall/model_59/tf.math.sigmoid_98/Sigmoid", "op": "Sigmoid", "input": ["PartitionedCall/model_59/tf.math.add_134/Add"], "attr": {"T": {"type": "DT_FLOAT"}}}, {"name": "PartitionedCall/model_59/tf.math.add_138/Add", "op": "_FusedConv2D", "input": ["PartitionedCall/model_59/tf.math.multiply_431/Mul", "unknown_136", "unknown_139"], "device": "/device:CPU:0", "attr": {"num_host_args": {"i": "0"}, "data_format": {"s": "TkhXQw=="}, "filter_format": {"s": "SFdJTw=="}, "fused_ops": {"list": {"s": ["Qmlhc0FkZA=="]}}, "num_args": {"i": "1"}, "strides": {"list": {"i": ["1", "1", "1", "1"]}}, "TArgs": {"list": {"type": ["DT_FLOAT"]}}, "padding": {"s": "U0FNRQ=="}, "use_cudnn_on_gpu": {"b": true}, "leakyrelu_alpha": {"f": 0.2}, "epsilon": {"f": 0.0}, "T": {"type": "DT_FLOAT"}, "explicit_paddings": {"list": {}}, "dilations": {"list": {"i": ["1", "1", "1", "1"]}}}}, {"name": "PartitionedCall/model_59/tf.math.add_139/Add", "op": "_FusedConv2D", "input": ["PartitionedCall/model_59/tf.math.multiply_435/Mul", "unknown_172", "unknown_175"], "device": "/device:CPU:0", "attr": {"num_host_args": {"i": "0"}, "data_format": {"s": "TkhXQw=="}, "filter_format": {"s": "SFdJTw=="}, "fused_ops": {"list": {"s": ["Qmlhc0FkZA=="]}}, "num_args": {"i": "1"}, "strides": {"list": {"i": ["1", "1", "1", "1"]}}, "TArgs": {"list": {"type": ["DT_FLOAT"]}}, "padding": {"s": "U0FNRQ=="}, "use_cudnn_on_gpu": {"b": true}, "leakyrelu_alpha": {"f": 0.2}, "epsilon": {"f": 0.0}, "T": {"type": "DT_FLOAT"}, "explicit_paddings": {"list": {}}, "dilations": {"list": {"i": ["1", "1", "1", "1"]}}}}, {"name": "PartitionedCall/model_59/tf.math.add_140/Add", "op": "_FusedConv2D", "input": ["PartitionedCall/model_59/tf.math.multiply_439/Mul", "unknown_154", "unknown_157"], "device": "/device:CPU:0", "attr": {"num_host_args": {"i": "0"}, "data_format": {"s": "TkhXQw=="}, "filter_format": {"s": "SFdJTw=="}, "fused_ops": {"list": {"s": ["Qmlhc0FkZA=="]}}, "num_args": {"i": "1"}, "strides": {"list": {"i": ["1", "1", "1", "1"]}}, "TArgs": {"list": {"type": ["DT_FLOAT"]}}, "padding": {"s": "U0FNRQ=="}, "use_cudnn_on_gpu": {"b": true}, "leakyrelu_alpha": {"f": 0.2}, "epsilon": {"f": 0.0}, "T": {"type": "DT_FLOAT"}, "explicit_paddings": {"list": {}}, "dilations": {"list": {"i": ["1", "1", "1", "1"]}}}}, {"name": "PartitionedCall/model_59/tf.math.multiply_427/Mul", "op": "Mul", "input": ["PartitionedCall/model_59/tf.math.add_134/Add", "PartitionedCall/model_59/tf.math.sigmoid_98/Sigmoid"], "attr": {"T": {"type": "DT_FLOAT"}}}, {"name": "PartitionedCall/model_59/tf.math.sigmoid_102/Sigmoid", "op": "Sigmoid", "input": ["PartitionedCall/model_59/tf.math.add_138/Add"], "attr": {"T": {"type": "DT_FLOAT"}}}, {"name": "PartitionedCall/model_59/tf.math.sigmoid_103/Sigmoid", "op": "Sigmoid", "input": ["PartitionedCall/model_59/tf.math.add_139/Add"], "attr": {"T": {"type": "DT_FLOAT"}}}, {"name": "PartitionedCall/model_59/tf.math.sigmoid_104/Sigmoid", "op": "Sigmoid", "input": ["PartitionedCall/model_59/tf.math.add_140/Add"], "attr": {"T": {"type": "DT_FLOAT"}}}, {"name": "PartitionedCall/model_59/tf.concat_31/concat", "op": "ConcatV2", "input": ["PartitionedCall/model_59/tf.math.multiply_427/Mul", "PartitionedCall/model_59/tf.math.multiply_407/Mul", "PartitionedCall/model_59/tf.concat_31/concat/axis"], "attr": {"N": {"i": "2"}, "T": {"type": "DT_FLOAT"}, "Tidx": {"type": "DT_INT32"}}}, {"name": "PartitionedCall/model_59/tf.math.multiply_443/Mul", "op": "Mul", "input": ["PartitionedCall/model_59/tf.math.add_138/Add", "PartitionedCall/model_59/tf.math.sigmoid_102/Sigmoid"], "attr": {"T": {"type": "DT_FLOAT"}}}, {"name": "PartitionedCall/model_59/tf.math.multiply_447/Mul", "op": "Mul", "input": ["PartitionedCall/model_59/tf.math.add_139/Add", "PartitionedCall/model_59/tf.math.sigmoid_103/Sigmoid"], "attr": {"T": {"type": "DT_FLOAT"}}}, {"name": "PartitionedCall/model_59/tf.math.multiply_451/Mul", "op": "Mul", "input": ["PartitionedCall/model_59/tf.math.add_140/Add", "PartitionedCall/model_59/tf.math.sigmoid_104/Sigmoid"], "attr": {"T": {"type": "DT_FLOAT"}}}, {"name": "PartitionedCall/model_59/tf.math.add_141/Add", "op": "_FusedConv2D", "input": ["PartitionedCall/model_59/tf.concat_31/concat", "unknown_101", "unknown_102"], "device": "/device:CPU:0", "attr": {"num_host_args": {"i": "0"}, "data_format": {"s": "TkhXQw=="}, "filter_format": {"s": "SFdJTw=="}, "fused_ops": {"list": {"s": ["Qmlhc0FkZA=="]}}, "num_args": {"i": "1"}, "strides": {"list": {"i": ["1", "1", "1", "1"]}}, "TArgs": {"list": {"type": ["DT_FLOAT"]}}, "padding": {"s": "U0FNRQ=="}, "use_cudnn_on_gpu": {"b": true}, "leakyrelu_alpha": {"f": 0.2}, "epsilon": {"f": 0.0}, "T": {"type": "DT_FLOAT"}, "explicit_paddings": {"list": {}}, "dilations": {"list": {"i": ["1", "1", "1", "1"]}}}}, {"name": "PartitionedCall/model_59/tf.math.add_142/Add", "op": "_FusedConv2D", "input": ["PartitionedCall/model_59/tf.math.multiply_443/Mul", "unknown_145", "unknown_151"], "device": "/device:CPU:0", "attr": {"num_host_args": {"i": "0"}, "data_format": {"s": "TkhXQw=="}, "filter_format": {"s": "SFdJTw=="}, "strides": {"list": {"i": ["1", "1", "1", "1"]}}, "num_args": {"i": "1"}, "fused_ops": {"list": {"s": ["Qmlhc0FkZA=="]}}, "TArgs": {"list": {"type": ["DT_FLOAT"]}}, "padding": {"s": "U0FNRQ=="}, "use_cudnn_on_gpu": {"b": true}, "leakyrelu_alpha": {"f": 0.2}, "epsilon": {"f": 0.0}, "T": {"type": "DT_FLOAT"}, "explicit_paddings": {"list": {}}, "dilations": {"list": {"i": ["1", "1", "1", "1"]}}}}, {"name": "PartitionedCall/model_59/tf.math.add_143/Add", "op": "_FusedConv2D", "input": ["PartitionedCall/model_59/tf.math.multiply_447/Mul", "unknown_181", "unknown_188"], "device": "/device:CPU:0", "attr": {"num_host_args": {"i": "0"}, "data_format": {"s": "TkhXQw=="}, "filter_format": {"s": "SFdJTw=="}, "strides": {"list": {"i": ["1", "1", "1", "1"]}}, "num_args": {"i": "1"}, "fused_ops": {"list": {"s": ["Qmlhc0FkZA=="]}}, "TArgs": {"list": {"type": ["DT_FLOAT"]}}, "padding": {"s": "U0FNRQ=="}, "use_cudnn_on_gpu": {"b": true}, "leakyrelu_alpha": {"f": 0.2}, "epsilon": {"f": 0.0}, "T": {"type": "DT_FLOAT"}, "explicit_paddings": {"list": {}}, "dilations": {"list": {"i": ["1", "1", "1", "1"]}}}}, {"name": "PartitionedCall/model_59/tf.math.add_144/Add", "op": "_FusedConv2D", "input": ["PartitionedCall/model_59/tf.math.multiply_451/Mul", "unknown_166", "unknown_169"], "device": "/device:CPU:0", "attr": {"num_host_args": {"i": "0"}, "data_format": {"s": "TkhXQw=="}, "filter_format": {"s": "SFdJTw=="}, "fused_ops": {"list": {"s": ["Qmlhc0FkZA=="]}}, "num_args": {"i": "1"}, "strides": {"list": {"i": ["1", "1", "1", "1"]}}, "TArgs": {"list": {"type": ["DT_FLOAT"]}}, "padding": {"s": "U0FNRQ=="}, "use_cudnn_on_gpu": {"b": true}, "leakyrelu_alpha": {"f": 0.2}, "epsilon": {"f": 0.0}, "T": {"type": "DT_FLOAT"}, "explicit_paddings": {"list": {}}, "dilations": {"list": {"i": ["1", "1", "1", "1"]}}}}, {"name": "PartitionedCall/model_59/tf.math.sigmoid_105/Sigmoid", "op": "Sigmoid", "input": ["PartitionedCall/model_59/tf.math.add_141/Add"], "attr": {"T": {"type": "DT_FLOAT"}}}, {"name": "PartitionedCall/model_59/tf.compat.v1.transpose_184/transpose", "op": "Transpose", "input": ["PartitionedCall/model_59/tf.math.add_142/Add", "PartitionedCall/model_59/tf.compat.v1.transpose_184/transpose/perm"], "attr": {"Tperm": {"type": "DT_INT32"}, "T": {"type": "DT_FLOAT"}}}, {"name": "PartitionedCall/model_59/tf.compat.v1.transpose_189/transpose", "op": "Transpose", "input": ["PartitionedCall/model_59/tf.math.add_143/Add", "PartitionedCall/model_59/tf.compat.v1.transpose_189/transpose/perm"], "attr": {"Tperm": {"type": "DT_INT32"}, "T": {"type": "DT_FLOAT"}}}, {"name": "PartitionedCall/model_59/tf.compat.v1.transpose_194/transpose", "op": "Transpose", "input": ["PartitionedCall/model_59/tf.math.add_144/Add", "PartitionedCall/model_59/tf.compat.v1.transpose_194/transpose/perm"], "attr": {"Tperm": {"type": "DT_INT32"}, "T": {"type": "DT_FLOAT"}}}, {"name": "PartitionedCall/model_59/tf.math.multiply_455/Mul", "op": "Mul", "input": ["PartitionedCall/model_59/tf.math.add_141/Add", "PartitionedCall/model_59/tf.math.sigmoid_105/Sigmoid"], "attr": {"T": {"type": "DT_FLOAT"}}}, {"name": "PartitionedCall/model_59/tf.reshape_41/Reshape", "op": "Reshape", "input": ["PartitionedCall/model_59/tf.compat.v1.transpose_184/transpose", "PartitionedCall/model_59/tf.reshape_41/Reshape/shape"], "attr": {"T": {"type": "DT_FLOAT"}, "Tshape": {"type": "DT_INT32"}}}, {"name": "PartitionedCall/model_59/tf.reshape_44/Reshape", "op": "Reshape", "input": ["PartitionedCall/model_59/tf.compat.v1.transpose_189/transpose", "PartitionedCall/model_59/tf.reshape_44/Reshape/shape"], "attr": {"T": {"type": "DT_FLOAT"}, "Tshape": {"type": "DT_INT32"}}}, {"name": "PartitionedCall/model_59/tf.reshape_47/Reshape", "op": "Reshape", "input": ["PartitionedCall/model_59/tf.compat.v1.transpose_194/transpose", "PartitionedCall/model_59/tf.reshape_47/Reshape/shape"], "attr": {"T": {"type": "DT_FLOAT"}, "Tshape": {"type": "DT_INT32"}}}, {"name": "PartitionedCall/model_59/tf.strided_slice_32/StridedSlice", "op": "StridedSlice", "input": ["PartitionedCall/model_59/tf.math.multiply_455/Mul", "unknown_109", "unknown_110", "PartitionedCall/model_59/tf.strided_slice_32/ones_like"], "attr": {"shrink_axis_mask": {"i": "0"}, "new_axis_mask": {"i": "0"}, "Index": {"type": "DT_INT64"}, "begin_mask": {"i": "15"}, "end_mask": {"i": "7"}, "T": {"type": "DT_FLOAT"}, "ellipsis_mask": {"i": "0"}}}, {"name": "PartitionedCall/model_59/tf.strided_slice_33/StridedSlice", "op": "StridedSlice", "input": ["PartitionedCall/model_59/tf.math.multiply_455/Mul", "unknown_103", "unknown_104", "PartitionedCall/model_59/tf.strided_slice_33/ones_like"], "attr": {"shrink_axis_mask": {"i": "0"}, "Index": {"type": "DT_INT64"}, "new_axis_mask": {"i": "0"}, "begin_mask": {"i": "7"}, "T": {"type": "DT_FLOAT"}, "end_mask": {"i": "7"}, "ellipsis_mask": {"i": "0"}}}, {"name": "PartitionedCall/model_59/tf.math.add_145/Add", "op": "_FusedConv2D", "input": ["PartitionedCall/model_59/tf.strided_slice_33/StridedSlice", "unknown_105", "unknown_106"], "device": "/device:CPU:0", "attr": {"num_host_args": {"i": "0"}, "data_format": {"s": "TkhXQw=="}, "filter_format": {"s": "SFdJTw=="}, "fused_ops": {"list": {"s": ["Qmlhc0FkZA=="]}}, "num_args": {"i": "1"}, "strides": {"list": {"i": ["1", "1", "1", "1"]}}, "TArgs": {"list": {"type": ["DT_FLOAT"]}}, "padding": {"s": "U0FNRQ=="}, "use_cudnn_on_gpu": {"b": true}, "leakyrelu_alpha": {"f": 0.2}, "epsilon": {"f": 0.0}, "T": {"type": "DT_FLOAT"}, "explicit_paddings": {"list": {}}, "dilations": {"list": {"i": ["1", "1", "1", "1"]}}}}, {"name": "PartitionedCall/model_59/tf.math.sigmoid_106/Sigmoid", "op": "Sigmoid", "input": ["PartitionedCall/model_59/tf.math.add_145/Add"], "attr": {"T": {"type": "DT_FLOAT"}}}, {"name": "PartitionedCall/model_59/tf.math.multiply_459/Mul", "op": "Mul", "input": ["PartitionedCall/model_59/tf.math.add_145/Add", "PartitionedCall/model_59/tf.math.sigmoid_106/Sigmoid"], "attr": {"T": {"type": "DT_FLOAT"}}}, {"name": "PartitionedCall/model_59/tf.math.add_146/Add", "op": "_FusedConv2D", "input": ["PartitionedCall/model_59/tf.math.multiply_459/Mul", "unknown_107", "unknown_108"], "device": "/device:CPU:0", "attr": {"num_host_args": {"i": "0"}, "data_format": {"s": "TkhXQw=="}, "filter_format": {"s": "SFdJTw=="}, "fused_ops": {"list": {"s": ["Qmlhc0FkZA=="]}}, "num_args": {"i": "1"}, "strides": {"list": {"i": ["1", "1", "1", "1"]}}, "TArgs": {"list": {"type": ["DT_FLOAT"]}}, "padding": {"s": "U0FNRQ=="}, "use_cudnn_on_gpu": {"b": true}, "leakyrelu_alpha": {"f": 0.2}, "epsilon": {"f": 0.0}, "T": {"type": "DT_FLOAT"}, "explicit_paddings": {"list": {}}, "dilations": {"list": {"i": ["1", "1", "1", "1"]}}}}, {"name": "PartitionedCall/model_59/tf.math.sigmoid_107/Sigmoid", "op": "Sigmoid", "input": ["PartitionedCall/model_59/tf.math.add_146/Add"], "attr": {"T": {"type": "DT_FLOAT"}}}, {"name": "PartitionedCall/model_59/tf.math.multiply_463/Mul", "op": "Mul", "input": ["PartitionedCall/model_59/tf.math.add_146/Add", "PartitionedCall/model_59/tf.math.sigmoid_107/Sigmoid"], "attr": {"T": {"type": "DT_FLOAT"}}}, {"name": "PartitionedCall/model_59/tf.concat_32/concat", "op": "ConcatV2", "input": ["PartitionedCall/model_59/tf.strided_slice_32/StridedSlice", "PartitionedCall/model_59/tf.strided_slice_33/StridedSlice", "PartitionedCall/model_59/tf.math.multiply_463/Mul", "PartitionedCall/model_59/tf.concat_32/concat/axis"], "attr": {"N": {"i": "3"}, "T": {"type": "DT_FLOAT"}, "Tidx": {"type": "DT_INT32"}}}, {"name": "PartitionedCall/model_59/tf.math.add_147/Add", "op": "_FusedConv2D", "input": ["PartitionedCall/model_59/tf.concat_32/concat", "unknown_111", "unknown_112"], "device": "/device:CPU:0", "attr": {"num_host_args": {"i": "0"}, "data_format": {"s": "TkhXQw=="}, "filter_format": {"s": "SFdJTw=="}, "strides": {"list": {"i": ["1", "1", "1", "1"]}}, "num_args": {"i": "1"}, "fused_ops": {"list": {"s": ["Qmlhc0FkZA=="]}}, "TArgs": {"list": {"type": ["DT_FLOAT"]}}, "padding": {"s": "U0FNRQ=="}, "use_cudnn_on_gpu": {"b": true}, "leakyrelu_alpha": {"f": 0.2}, "epsilon": {"f": 0.0}, "T": {"type": "DT_FLOAT"}, "explicit_paddings": {"list": {}}, "dilations": {"list": {"i": ["1", "1", "1", "1"]}}}}, {"name": "PartitionedCall/model_59/tf.math.sigmoid_108/Sigmoid", "op": "Sigmoid", "input": ["PartitionedCall/model_59/tf.math.add_147/Add"], "attr": {"T": {"type": "DT_FLOAT"}}}, {"name": "PartitionedCall/model_59/tf.math.multiply_467/Mul", "op": "Mul", "input": ["PartitionedCall/model_59/tf.math.add_147/Add", "PartitionedCall/model_59/tf.math.sigmoid_108/Sigmoid"], "attr": {"T": {"type": "DT_FLOAT"}}}, {"name": "PartitionedCall/model_59/tf.math.add_149/Add", "op": "_FusedConv2D", "input": ["PartitionedCall/model_59/tf.math.multiply_467/Mul", "unknown_129", "unknown_132"], "device": "/device:CPU:0", "attr": {"num_host_args": {"i": "0"}, "data_format": {"s": "TkhXQw=="}, "filter_format": {"s": "SFdJTw=="}, "fused_ops": {"list": {"s": ["Qmlhc0FkZA=="]}}, "num_args": {"i": "1"}, "strides": {"list": {"i": ["1", "1", "1", "1"]}}, "TArgs": {"list": {"type": ["DT_FLOAT"]}}, "padding": {"s": "U0FNRQ=="}, "use_cudnn_on_gpu": {"b": true}, "leakyrelu_alpha": {"f": 0.2}, "epsilon": {"f": 0.0}, "T": {"type": "DT_FLOAT"}, "explicit_paddings": {"list": {}}, "dilations": {"list": {"i": ["1", "1", "1", "1"]}}}}, {"name": "PartitionedCall/model_59/tf.math.add_150/Add", "op": "_FusedConv2D", "input": ["PartitionedCall/model_59/tf.math.multiply_467/Mul", "unknown_159", "unknown_162"], "device": "/device:CPU:0", "attr": {"num_host_args": {"i": "0"}, "data_format": {"s": "TkhXQw=="}, "filter_format": {"s": "SFdJTw=="}, "strides": {"list": {"i": ["1", "1", "1", "1"]}}, "num_args": {"i": "1"}, "fused_ops": {"list": {"s": ["Qmlhc0FkZA=="]}}, "TArgs": {"list": {"type": ["DT_FLOAT"]}}, "padding": {"s": "U0FNRQ=="}, "use_cudnn_on_gpu": {"b": true}, "leakyrelu_alpha": {"f": 0.2}, "epsilon": {"f": 0.0}, "T": {"type": "DT_FLOAT"}, "explicit_paddings": {"list": {}}, "dilations": {"list": {"i": ["1", "1", "1", "1"]}}}}, {"name": "PartitionedCall/model_59/tf.math.add_151/Add", "op": "_FusedConv2D", "input": ["PartitionedCall/model_59/tf.math.multiply_467/Mul", "unknown_141", "unknown_147"], "device": "/device:CPU:0", "attr": {"num_host_args": {"i": "0"}, "data_format": {"s": "TkhXQw=="}, "filter_format": {"s": "SFdJTw=="}, "fused_ops": {"list": {"s": ["Qmlhc0FkZA=="]}}, "num_args": {"i": "1"}, "strides": {"list": {"i": ["1", "1", "1", "1"]}}, "TArgs": {"list": {"type": ["DT_FLOAT"]}}, "padding": {"s": "U0FNRQ=="}, "use_cudnn_on_gpu": {"b": true}, "leakyrelu_alpha": {"f": 0.2}, "epsilon": {"f": 0.0}, "T": {"type": "DT_FLOAT"}, "explicit_paddings": {"list": {}}, "dilations": {"list": {"i": ["1", "1", "1", "1"]}}}}, {"name": "PartitionedCall/model_59/tf.compat.v1.pad_13/Pad", "op": "Pad", "input": ["PartitionedCall/model_59/tf.math.multiply_467/Mul", "unknown_113"], "attr": {"Tpaddings": {"type": "DT_INT32"}, "T": {"type": "DT_FLOAT"}}}, {"name": "PartitionedCall/model_59/tf.math.sigmoid_110/Sigmoid", "op": "Sigmoid", "input": ["PartitionedCall/model_59/tf.math.add_149/Add"], "attr": {"T": {"type": "DT_FLOAT"}}}, {"name": "PartitionedCall/model_59/tf.math.sigmoid_111/Sigmoid", "op": "Sigmoid", "input": ["PartitionedCall/model_59/tf.math.add_150/Add"], "attr": {"T": {"type": "DT_FLOAT"}}}, {"name": "PartitionedCall/model_59/tf.math.sigmoid_112/Sigmoid", "op": "Sigmoid", "input": ["PartitionedCall/model_59/tf.math.add_151/Add"], "attr": {"T": {"type": "DT_FLOAT"}}}, {"name": "PartitionedCall/model_59/tf.math.add_148/Add", "op": "_FusedConv2D", "input": ["PartitionedCall/model_59/tf.compat.v1.pad_13/Pad", "unknown_114", "unknown_115"], "device": "/device:CPU:0", "attr": {"num_host_args": {"i": "0"}, "data_format": {"s": "TkhXQw=="}, "filter_format": {"s": "SFdJTw=="}, "fused_ops": {"list": {"s": ["Qmlhc0FkZA=="]}}, "num_args": {"i": "1"}, "strides": {"list": {"i": ["1", "2", "2", "1"]}}, "TArgs": {"list": {"type": ["DT_FLOAT"]}}, "padding": {"s": "VkFMSUQ="}, "use_cudnn_on_gpu": {"b": true}, "leakyrelu_alpha": {"f": 0.2}, "epsilon": {"f": 0.0}, "T": {"type": "DT_FLOAT"}, "explicit_paddings": {"list": {}}, "dilations": {"list": {"i": ["1", "1", "1", "1"]}}}}, {"name": "PartitionedCall/model_59/tf.math.multiply_475/Mul", "op": "Mul", "input": ["PartitionedCall/model_59/tf.math.add_149/Add", "PartitionedCall/model_59/tf.math.sigmoid_110/Sigmoid"], "attr": {"T": {"type": "DT_FLOAT"}}}, {"name": "PartitionedCall/model_59/tf.math.multiply_479/Mul", "op": "Mul", "input": ["PartitionedCall/model_59/tf.math.add_150/Add", "PartitionedCall/model_59/tf.math.sigmoid_111/Sigmoid"], "attr": {"T": {"type": "DT_FLOAT"}}}, {"name": "PartitionedCall/model_59/tf.math.multiply_483/Mul", "op": "Mul", "input": ["PartitionedCall/model_59/tf.math.add_151/Add", "PartitionedCall/model_59/tf.math.sigmoid_112/Sigmoid"], "attr": {"T": {"type": "DT_FLOAT"}}}, {"name": "PartitionedCall/model_59/tf.math.sigmoid_109/Sigmoid", "op": "Sigmoid", "input": ["PartitionedCall/model_59/tf.math.add_148/Add"], "attr": {"T": {"type": "DT_FLOAT"}}}, {"name": "PartitionedCall/model_59/tf.math.add_152/Add", "op": "_FusedConv2D", "input": ["PartitionedCall/model_59/tf.math.multiply_475/Mul", "unknown_135", "unknown_138"], "device": "/device:CPU:0", "attr": {"num_host_args": {"i": "0"}, "data_format": {"s": "TkhXQw=="}, "filter_format": {"s": "SFdJTw=="}, "fused_ops": {"list": {"s": ["Qmlhc0FkZA=="]}}, "num_args": {"i": "1"}, "strides": {"list": {"i": ["1", "1", "1", "1"]}}, "TArgs": {"list": {"type": ["DT_FLOAT"]}}, "padding": {"s": "U0FNRQ=="}, "use_cudnn_on_gpu": {"b": true}, "leakyrelu_alpha": {"f": 0.2}, "epsilon": {"f": 0.0}, "T": {"type": "DT_FLOAT"}, "explicit_paddings": {"list": {}}, "dilations": {"list": {"i": ["1", "1", "1", "1"]}}}}, {"name": "PartitionedCall/model_59/tf.math.add_153/Add", "op": "_FusedConv2D", "input": ["PartitionedCall/model_59/tf.math.multiply_479/Mul", "unknown_171", "unknown_174"], "device": "/device:CPU:0", "attr": {"num_host_args": {"i": "0"}, "data_format": {"s": "TkhXQw=="}, "filter_format": {"s": "SFdJTw=="}, "fused_ops": {"list": {"s": ["Qmlhc0FkZA=="]}}, "num_args": {"i": "1"}, "strides": {"list": {"i": ["1", "1", "1", "1"]}}, "TArgs": {"list": {"type": ["DT_FLOAT"]}}, "padding": {"s": "U0FNRQ=="}, "use_cudnn_on_gpu": {"b": true}, "leakyrelu_alpha": {"f": 0.2}, "epsilon": {"f": 0.0}, "T": {"type": "DT_FLOAT"}, "explicit_paddings": {"list": {}}, "dilations": {"list": {"i": ["1", "1", "1", "1"]}}}}, {"name": "PartitionedCall/model_59/tf.math.add_154/Add", "op": "_FusedConv2D", "input": ["PartitionedCall/model_59/tf.math.multiply_483/Mul", "unknown_153", "unknown_156"], "device": "/device:CPU:0", "attr": {"num_host_args": {"i": "0"}, "data_format": {"s": "TkhXQw=="}, "filter_format": {"s": "SFdJTw=="}, "strides": {"list": {"i": ["1", "1", "1", "1"]}}, "num_args": {"i": "1"}, "fused_ops": {"list": {"s": ["Qmlhc0FkZA=="]}}, "TArgs": {"list": {"type": ["DT_FLOAT"]}}, "padding": {"s": "U0FNRQ=="}, "use_cudnn_on_gpu": {"b": true}, "leakyrelu_alpha": {"f": 0.2}, "epsilon": {"f": 0.0}, "T": {"type": "DT_FLOAT"}, "explicit_paddings": {"list": {}}, "dilations": {"list": {"i": ["1", "1", "1", "1"]}}}}, {"name": "PartitionedCall/model_59/tf.math.multiply_471/Mul", "op": "Mul", "input": ["PartitionedCall/model_59/tf.math.add_148/Add", "PartitionedCall/model_59/tf.math.sigmoid_109/Sigmoid"], "attr": {"T": {"type": "DT_FLOAT"}}}, {"name": "PartitionedCall/model_59/tf.math.sigmoid_113/Sigmoid", "op": "Sigmoid", "input": ["PartitionedCall/model_59/tf.math.add_152/Add"], "attr": {"T": {"type": "DT_FLOAT"}}}, {"name": "PartitionedCall/model_59/tf.math.sigmoid_114/Sigmoid", "op": "Sigmoid", "input": ["PartitionedCall/model_59/tf.math.add_153/Add"], "attr": {"T": {"type": "DT_FLOAT"}}}, {"name": "PartitionedCall/model_59/tf.math.sigmoid_115/Sigmoid", "op": "Sigmoid", "input": ["PartitionedCall/model_59/tf.math.add_154/Add"], "attr": {"T": {"type": "DT_FLOAT"}}}, {"name": "PartitionedCall/model_59/tf.concat_33/concat", "op": "ConcatV2", "input": ["PartitionedCall/model_59/tf.math.multiply_471/Mul", "PartitionedCall/model_59/tf.math.multiply_391/Mul", "PartitionedCall/model_59/tf.concat_33/concat/axis"], "attr": {"N": {"i": "2"}, "Tidx": {"type": "DT_INT32"}, "T": {"type": "DT_FLOAT"}}}, {"name": "PartitionedCall/model_59/tf.math.multiply_487/Mul", "op": "Mul", "input": ["PartitionedCall/model_59/tf.math.add_152/Add", "PartitionedCall/model_59/tf.math.sigmoid_113/Sigmoid"], "attr": {"T": {"type": "DT_FLOAT"}}}, {"name": "PartitionedCall/model_59/tf.math.multiply_491/Mul", "op": "Mul", "input": ["PartitionedCall/model_59/tf.math.add_153/Add", "PartitionedCall/model_59/tf.math.sigmoid_114/Sigmoid"], "attr": {"T": {"type": "DT_FLOAT"}}}, {"name": "PartitionedCall/model_59/tf.math.multiply_495/Mul", "op": "Mul", "input": ["PartitionedCall/model_59/tf.math.add_154/Add", "PartitionedCall/model_59/tf.math.sigmoid_115/Sigmoid"], "attr": {"T": {"type": "DT_FLOAT"}}}, {"name": "PartitionedCall/model_59/tf.math.add_155/Add", "op": "_FusedConv2D", "input": ["PartitionedCall/model_59/tf.concat_33/concat", "unknown_116", "unknown_117"], "device": "/device:CPU:0", "attr": {"num_host_args": {"i": "0"}, "data_format": {"s": "TkhXQw=="}, "filter_format": {"s": "SFdJTw=="}, "strides": {"list": {"i": ["1", "1", "1", "1"]}}, "num_args": {"i": "1"}, "fused_ops": {"list": {"s": ["Qmlhc0FkZA=="]}}, "TArgs": {"list": {"type": ["DT_FLOAT"]}}, "padding": {"s": "U0FNRQ=="}, "use_cudnn_on_gpu": {"b": true}, "leakyrelu_alpha": {"f": 0.2}, "epsilon": {"f": 0.0}, "T": {"type": "DT_FLOAT"}, "explicit_paddings": {"list": {}}, "dilations": {"list": {"i": ["1", "1", "1", "1"]}}}}, {"name": "PartitionedCall/model_59/tf.math.add_156/Add", "op": "_FusedConv2D", "input": ["PartitionedCall/model_59/tf.math.multiply_487/Mul", "unknown_144", "unknown_150"], "device": "/device:CPU:0", "attr": {"num_host_args": {"i": "0"}, "data_format": {"s": "TkhXQw=="}, "filter_format": {"s": "SFdJTw=="}, "strides": {"list": {"i": ["1", "1", "1", "1"]}}, "num_args": {"i": "1"}, "fused_ops": {"list": {"s": ["Qmlhc0FkZA=="]}}, "TArgs": {"list": {"type": ["DT_FLOAT"]}}, "padding": {"s": "U0FNRQ=="}, "use_cudnn_on_gpu": {"b": true}, "leakyrelu_alpha": {"f": 0.2}, "epsilon": {"f": 0.0}, "T": {"type": "DT_FLOAT"}, "explicit_paddings": {"list": {}}, "dilations": {"list": {"i": ["1", "1", "1", "1"]}}}}, {"name": "PartitionedCall/model_59/tf.math.add_157/Add", "op": "_FusedConv2D", "input": ["PartitionedCall/model_59/tf.math.multiply_491/Mul", "unknown_180", "unknown_187"], "device": "/device:CPU:0", "attr": {"num_host_args": {"i": "0"}, "data_format": {"s": "TkhXQw=="}, "filter_format": {"s": "SFdJTw=="}, "fused_ops": {"list": {"s": ["Qmlhc0FkZA=="]}}, "num_args": {"i": "1"}, "strides": {"list": {"i": ["1", "1", "1", "1"]}}, "TArgs": {"list": {"type": ["DT_FLOAT"]}}, "padding": {"s": "U0FNRQ=="}, "use_cudnn_on_gpu": {"b": true}, "leakyrelu_alpha": {"f": 0.2}, "epsilon": {"f": 0.0}, "T": {"type": "DT_FLOAT"}, "explicit_paddings": {"list": {}}, "dilations": {"list": {"i": ["1", "1", "1", "1"]}}}}, {"name": "PartitionedCall/model_59/tf.math.add_158/Add", "op": "_FusedConv2D", "input": ["PartitionedCall/model_59/tf.math.multiply_495/Mul", "unknown_165", "unknown_168"], "device": "/device:CPU:0", "attr": {"num_host_args": {"i": "0"}, "data_format": {"s": "TkhXQw=="}, "filter_format": {"s": "SFdJTw=="}, "fused_ops": {"list": {"s": ["Qmlhc0FkZA=="]}}, "num_args": {"i": "1"}, "strides": {"list": {"i": ["1", "1", "1", "1"]}}, "TArgs": {"list": {"type": ["DT_FLOAT"]}}, "padding": {"s": "U0FNRQ=="}, "use_cudnn_on_gpu": {"b": true}, "leakyrelu_alpha": {"f": 0.2}, "epsilon": {"f": 0.0}, "T": {"type": "DT_FLOAT"}, "explicit_paddings": {"list": {}}, "dilations": {"list": {"i": ["1", "1", "1", "1"]}}}}, {"name": "PartitionedCall/model_59/tf.math.sigmoid_116/Sigmoid", "op": "Sigmoid", "input": ["PartitionedCall/model_59/tf.math.add_155/Add"], "attr": {"T": {"type": "DT_FLOAT"}}}, {"name": "PartitionedCall/model_59/tf.compat.v1.transpose_210/transpose", "op": "Transpose", "input": ["PartitionedCall/model_59/tf.math.add_156/Add", "PartitionedCall/model_59/tf.compat.v1.transpose_210/transpose/perm"], "attr": {"Tperm": {"type": "DT_INT32"}, "T": {"type": "DT_FLOAT"}}}, {"name": "PartitionedCall/model_59/tf.compat.v1.transpose_215/transpose", "op": "Transpose", "input": ["PartitionedCall/model_59/tf.math.add_157/Add", "PartitionedCall/model_59/tf.compat.v1.transpose_215/transpose/perm"], "attr": {"Tperm": {"type": "DT_INT32"}, "T": {"type": "DT_FLOAT"}}}, {"name": "PartitionedCall/model_59/tf.compat.v1.transpose_220/transpose", "op": "Transpose", "input": ["PartitionedCall/model_59/tf.math.add_158/Add", "PartitionedCall/model_59/tf.compat.v1.transpose_220/transpose/perm"], "attr": {"Tperm": {"type": "DT_INT32"}, "T": {"type": "DT_FLOAT"}}}, {"name": "PartitionedCall/model_59/tf.math.multiply_499/Mul", "op": "Mul", "input": ["PartitionedCall/model_59/tf.math.add_155/Add", "PartitionedCall/model_59/tf.math.sigmoid_116/Sigmoid"], "attr": {"T": {"type": "DT_FLOAT"}}}, {"name": "PartitionedCall/model_59/tf.reshape_50/Reshape", "op": "Reshape", "input": ["PartitionedCall/model_59/tf.compat.v1.transpose_210/transpose", "PartitionedCall/model_59/tf.reshape_50/Reshape/shape"], "attr": {"T": {"type": "DT_FLOAT"}, "Tshape": {"type": "DT_INT32"}}}, {"name": "PartitionedCall/model_59/tf.reshape_53/Reshape", "op": "Reshape", "input": ["PartitionedCall/model_59/tf.compat.v1.transpose_215/transpose", "PartitionedCall/model_59/tf.reshape_53/Reshape/shape"], "attr": {"T": {"type": "DT_FLOAT"}, "Tshape": {"type": "DT_INT32"}}}, {"name": "PartitionedCall/model_59/tf.reshape_56/Reshape", "op": "Reshape", "input": ["PartitionedCall/model_59/tf.compat.v1.transpose_220/transpose", "PartitionedCall/model_59/tf.reshape_56/Reshape/shape"], "attr": {"T": {"type": "DT_FLOAT"}, "Tshape": {"type": "DT_INT32"}}}, {"name": "PartitionedCall/model_59/tf.strided_slice_34/StridedSlice", "op": "StridedSlice", "input": ["PartitionedCall/model_59/tf.math.multiply_499/Mul", "unknown_124", "unknown_125", "PartitionedCall/model_59/tf.strided_slice_34/ones_like"], "attr": {"shrink_axis_mask": {"i": "0"}, "Index": {"type": "DT_INT64"}, "new_axis_mask": {"i": "0"}, "begin_mask": {"i": "15"}, "end_mask": {"i": "7"}, "T": {"type": "DT_FLOAT"}, "ellipsis_mask": {"i": "0"}}}, {"name": "PartitionedCall/model_59/tf.strided_slice_35/StridedSlice", "op": "StridedSlice", "input": ["PartitionedCall/model_59/tf.math.multiply_499/Mul", "unknown_118", "unknown_119", "PartitionedCall/model_59/tf.strided_slice_35/ones_like"], "attr": {"shrink_axis_mask": {"i": "0"}, "new_axis_mask": {"i": "0"}, "Index": {"type": "DT_INT64"}, "begin_mask": {"i": "7"}, "end_mask": {"i": "7"}, "T": {"type": "DT_FLOAT"}, "ellipsis_mask": {"i": "0"}}}, {"name": "PartitionedCall/model_59/tf.math.add_159/Add", "op": "_FusedConv2D", "input": ["PartitionedCall/model_59/tf.strided_slice_35/StridedSlice", "unknown_120", "unknown_121"], "device": "/device:CPU:0", "attr": {"num_host_args": {"i": "0"}, "data_format": {"s": "TkhXQw=="}, "filter_format": {"s": "SFdJTw=="}, "fused_ops": {"list": {"s": ["Qmlhc0FkZA=="]}}, "num_args": {"i": "1"}, "strides": {"list": {"i": ["1", "1", "1", "1"]}}, "TArgs": {"list": {"type": ["DT_FLOAT"]}}, "padding": {"s": "U0FNRQ=="}, "use_cudnn_on_gpu": {"b": true}, "leakyrelu_alpha": {"f": 0.2}, "epsilon": {"f": 0.0}, "T": {"type": "DT_FLOAT"}, "explicit_paddings": {"list": {}}, "dilations": {"list": {"i": ["1", "1", "1", "1"]}}}}, {"name": "PartitionedCall/model_59/tf.math.sigmoid_117/Sigmoid", "op": "Sigmoid", "input": ["PartitionedCall/model_59/tf.math.add_159/Add"], "attr": {"T": {"type": "DT_FLOAT"}}}, {"name": "PartitionedCall/model_59/tf.math.multiply_503/Mul", "op": "Mul", "input": ["PartitionedCall/model_59/tf.math.add_159/Add", "PartitionedCall/model_59/tf.math.sigmoid_117/Sigmoid"], "attr": {"T": {"type": "DT_FLOAT"}}}, {"name": "PartitionedCall/model_59/tf.math.add_160/Add", "op": "_FusedConv2D", "input": ["PartitionedCall/model_59/tf.math.multiply_503/Mul", "unknown_122", "unknown_123"], "device": "/device:CPU:0", "attr": {"num_host_args": {"i": "0"}, "data_format": {"s": "TkhXQw=="}, "filter_format": {"s": "SFdJTw=="}, "fused_ops": {"list": {"s": ["Qmlhc0FkZA=="]}}, "num_args": {"i": "1"}, "strides": {"list": {"i": ["1", "1", "1", "1"]}}, "TArgs": {"list": {"type": ["DT_FLOAT"]}}, "padding": {"s": "U0FNRQ=="}, "use_cudnn_on_gpu": {"b": true}, "leakyrelu_alpha": {"f": 0.2}, "epsilon": {"f": 0.0}, "T": {"type": "DT_FLOAT"}, "explicit_paddings": {"list": {}}, "dilations": {"list": {"i": ["1", "1", "1", "1"]}}}}, {"name": "PartitionedCall/model_59/tf.math.sigmoid_118/Sigmoid", "op": "Sigmoid", "input": ["PartitionedCall/model_59/tf.math.add_160/Add"], "attr": {"T": {"type": "DT_FLOAT"}}}, {"name": "PartitionedCall/model_59/tf.math.multiply_507/Mul", "op": "Mul", "input": ["PartitionedCall/model_59/tf.math.add_160/Add", "PartitionedCall/model_59/tf.math.sigmoid_118/Sigmoid"], "attr": {"T": {"type": "DT_FLOAT"}}}, {"name": "PartitionedCall/model_59/tf.concat_34/concat", "op": "ConcatV2", "input": ["PartitionedCall/model_59/tf.strided_slice_34/StridedSlice", "PartitionedCall/model_59/tf.strided_slice_35/StridedSlice", "PartitionedCall/model_59/tf.math.multiply_507/Mul", "PartitionedCall/model_59/tf.concat_34/concat/axis"], "attr": {"N": {"i": "3"}, "T": {"type": "DT_FLOAT"}, "Tidx": {"type": "DT_INT32"}}}, {"name": "PartitionedCall/model_59/tf.math.add_161/Add", "op": "_FusedConv2D", "input": ["PartitionedCall/model_59/tf.concat_34/concat", "unknown_126", "unknown_127"], "device": "/device:CPU:0", "attr": {"num_host_args": {"i": "0"}, "data_format": {"s": "TkhXQw=="}, "filter_format": {"s": "SFdJTw=="}, "strides": {"list": {"i": ["1", "1", "1", "1"]}}, "num_args": {"i": "1"}, "fused_ops": {"list": {"s": ["Qmlhc0FkZA=="]}}, "TArgs": {"list": {"type": ["DT_FLOAT"]}}, "padding": {"s": "U0FNRQ=="}, "use_cudnn_on_gpu": {"b": true}, "leakyrelu_alpha": {"f": 0.2}, "epsilon": {"f": 0.0}, "T": {"type": "DT_FLOAT"}, "explicit_paddings": {"list": {}}, "dilations": {"list": {"i": ["1", "1", "1", "1"]}}}}, {"name": "PartitionedCall/model_59/tf.math.sigmoid_119/Sigmoid", "op": "Sigmoid", "input": ["PartitionedCall/model_59/tf.math.add_161/Add"], "attr": {"T": {"type": "DT_FLOAT"}}}, {"name": "PartitionedCall/model_59/tf.math.multiply_511/Mul", "op": "Mul", "input": ["PartitionedCall/model_59/tf.math.add_161/Add", "PartitionedCall/model_59/tf.math.sigmoid_119/Sigmoid"], "attr": {"T": {"type": "DT_FLOAT"}}}, {"name": "PartitionedCall/model_59/tf.math.add_162/Add", "op": "_FusedConv2D", "input": ["PartitionedCall/model_59/tf.math.multiply_511/Mul", "unknown_128", "unknown_131"], "device": "/device:CPU:0", "attr": {"num_host_args": {"i": "0"}, "data_format": {"s": "TkhXQw=="}, "filter_format": {"s": "SFdJTw=="}, "strides": {"list": {"i": ["1", "1", "1", "1"]}}, "num_args": {"i": "1"}, "fused_ops": {"list": {"s": ["Qmlhc0FkZA=="]}}, "TArgs": {"list": {"type": ["DT_FLOAT"]}}, "padding": {"s": "U0FNRQ=="}, "use_cudnn_on_gpu": {"b": true}, "leakyrelu_alpha": {"f": 0.2}, "epsilon": {"f": 0.0}, "T": {"type": "DT_FLOAT"}, "explicit_paddings": {"list": {}}, "dilations": {"list": {"i": ["1", "1", "1", "1"]}}}}, {"name": "PartitionedCall/model_59/tf.math.add_163/Add", "op": "_FusedConv2D", "input": ["PartitionedCall/model_59/tf.math.multiply_511/Mul", "unknown_158", "unknown_161"], "device": "/device:CPU:0", "attr": {"num_host_args": {"i": "0"}, "data_format": {"s": "TkhXQw=="}, "filter_format": {"s": "SFdJTw=="}, "strides": {"list": {"i": ["1", "1", "1", "1"]}}, "num_args": {"i": "1"}, "fused_ops": {"list": {"s": ["Qmlhc0FkZA=="]}}, "TArgs": {"list": {"type": ["DT_FLOAT"]}}, "padding": {"s": "U0FNRQ=="}, "use_cudnn_on_gpu": {"b": true}, "leakyrelu_alpha": {"f": 0.2}, "epsilon": {"f": 0.0}, "T": {"type": "DT_FLOAT"}, "explicit_paddings": {"list": {}}, "dilations": {"list": {"i": ["1", "1", "1", "1"]}}}}, {"name": "PartitionedCall/model_59/tf.math.add_164/Add", "op": "_FusedConv2D", "input": ["PartitionedCall/model_59/tf.math.multiply_511/Mul", "unknown_140", "unknown_146"], "device": "/device:CPU:0", "attr": {"num_host_args": {"i": "0"}, "data_format": {"s": "TkhXQw=="}, "filter_format": {"s": "SFdJTw=="}, "fused_ops": {"list": {"s": ["Qmlhc0FkZA=="]}}, "num_args": {"i": "1"}, "strides": {"list": {"i": ["1", "1", "1", "1"]}}, "TArgs": {"list": {"type": ["DT_FLOAT"]}}, "padding": {"s": "U0FNRQ=="}, "use_cudnn_on_gpu": {"b": true}, "leakyrelu_alpha": {"f": 0.2}, "epsilon": {"f": 0.0}, "T": {"type": "DT_FLOAT"}, "explicit_paddings": {"list": {}}, "dilations": {"list": {"i": ["1", "1", "1", "1"]}}}}, {"name": "PartitionedCall/model_59/tf.math.sigmoid_120/Sigmoid", "op": "Sigmoid", "input": ["PartitionedCall/model_59/tf.math.add_162/Add"], "attr": {"T": {"type": "DT_FLOAT"}}}, {"name": "PartitionedCall/model_59/tf.math.sigmoid_121/Sigmoid", "op": "Sigmoid", "input": ["PartitionedCall/model_59/tf.math.add_163/Add"], "attr": {"T": {"type": "DT_FLOAT"}}}, {"name": "PartitionedCall/model_59/tf.math.sigmoid_122/Sigmoid", "op": "Sigmoid", "input": ["PartitionedCall/model_59/tf.math.add_164/Add"], "attr": {"T": {"type": "DT_FLOAT"}}}, {"name": "PartitionedCall/model_59/tf.math.multiply_515/Mul", "op": "Mul", "input": ["PartitionedCall/model_59/tf.math.add_162/Add", "PartitionedCall/model_59/tf.math.sigmoid_120/Sigmoid"], "attr": {"T": {"type": "DT_FLOAT"}}}, {"name": "PartitionedCall/model_59/tf.math.multiply_519/Mul", "op": "Mul", "input": ["PartitionedCall/model_59/tf.math.add_163/Add", "PartitionedCall/model_59/tf.math.sigmoid_121/Sigmoid"], "attr": {"T": {"type": "DT_FLOAT"}}}, {"name": "PartitionedCall/model_59/tf.math.multiply_523/Mul", "op": "Mul", "input": ["PartitionedCall/model_59/tf.math.add_164/Add", "PartitionedCall/model_59/tf.math.sigmoid_122/Sigmoid"], "attr": {"T": {"type": "DT_FLOAT"}}}, {"name": "PartitionedCall/model_59/tf.math.add_165/Add", "op": "_FusedConv2D", "input": ["PartitionedCall/model_59/tf.math.multiply_515/Mul", "unknown_134", "unknown_137"], "device": "/device:CPU:0", "attr": {"num_host_args": {"i": "0"}, "data_format": {"s": "TkhXQw=="}, "filter_format": {"s": "SFdJTw=="}, "strides": {"list": {"i": ["1", "1", "1", "1"]}}, "num_args": {"i": "1"}, "fused_ops": {"list": {"s": ["Qmlhc0FkZA=="]}}, "TArgs": {"list": {"type": ["DT_FLOAT"]}}, "padding": {"s": "U0FNRQ=="}, "use_cudnn_on_gpu": {"b": true}, "leakyrelu_alpha": {"f": 0.2}, "epsilon": {"f": 0.0}, "T": {"type": "DT_FLOAT"}, "explicit_paddings": {"list": {}}, "dilations": {"list": {"i": ["1", "1", "1", "1"]}}}}, {"name": "PartitionedCall/model_59/tf.math.add_166/Add", "op": "_FusedConv2D", "input": ["PartitionedCall/model_59/tf.math.multiply_519/Mul", "unknown_170", "unknown_173"], "device": "/device:CPU:0", "attr": {"num_host_args": {"i": "0"}, "data_format": {"s": "TkhXQw=="}, "filter_format": {"s": "SFdJTw=="}, "fused_ops": {"list": {"s": ["Qmlhc0FkZA=="]}}, "num_args": {"i": "1"}, "strides": {"list": {"i": ["1", "1", "1", "1"]}}, "TArgs": {"list": {"type": ["DT_FLOAT"]}}, "padding": {"s": "U0FNRQ=="}, "use_cudnn_on_gpu": {"b": true}, "leakyrelu_alpha": {"f": 0.2}, "epsilon": {"f": 0.0}, "T": {"type": "DT_FLOAT"}, "explicit_paddings": {"list": {}}, "dilations": {"list": {"i": ["1", "1", "1", "1"]}}}}, {"name": "PartitionedCall/model_59/tf.math.add_167/Add", "op": "_FusedConv2D", "input": ["PartitionedCall/model_59/tf.math.multiply_523/Mul", "unknown_152", "unknown_155"], "device": "/device:CPU:0", "attr": {"num_host_args": {"i": "0"}, "data_format": {"s": "TkhXQw=="}, "filter_format": {"s": "SFdJTw=="}, "fused_ops": {"list": {"s": ["Qmlhc0FkZA=="]}}, "num_args": {"i": "1"}, "strides": {"list": {"i": ["1", "1", "1", "1"]}}, "TArgs": {"list": {"type": ["DT_FLOAT"]}}, "padding": {"s": "U0FNRQ=="}, "use_cudnn_on_gpu": {"b": true}, "leakyrelu_alpha": {"f": 0.2}, "epsilon": {"f": 0.0}, "T": {"type": "DT_FLOAT"}, "explicit_paddings": {"list": {}}, "dilations": {"list": {"i": ["1", "1", "1", "1"]}}}}, {"name": "PartitionedCall/model_59/tf.math.sigmoid_123/Sigmoid", "op": "Sigmoid", "input": ["PartitionedCall/model_59/tf.math.add_165/Add"], "attr": {"T": {"type": "DT_FLOAT"}}}, {"name": "PartitionedCall/model_59/tf.math.sigmoid_124/Sigmoid", "op": "Sigmoid", "input": ["PartitionedCall/model_59/tf.math.add_166/Add"], "attr": {"T": {"type": "DT_FLOAT"}}}, {"name": "PartitionedCall/model_59/tf.math.sigmoid_125/Sigmoid", "op": "Sigmoid", "input": ["PartitionedCall/model_59/tf.math.add_167/Add"], "attr": {"T": {"type": "DT_FLOAT"}}}, {"name": "PartitionedCall/model_59/tf.math.multiply_527/Mul", "op": "Mul", "input": ["PartitionedCall/model_59/tf.math.add_165/Add", "PartitionedCall/model_59/tf.math.sigmoid_123/Sigmoid"], "attr": {"T": {"type": "DT_FLOAT"}}}, {"name": "PartitionedCall/model_59/tf.math.multiply_531/Mul", "op": "Mul", "input": ["PartitionedCall/model_59/tf.math.add_166/Add", "PartitionedCall/model_59/tf.math.sigmoid_124/Sigmoid"], "attr": {"T": {"type": "DT_FLOAT"}}}, {"name": "PartitionedCall/model_59/tf.math.multiply_535/Mul", "op": "Mul", "input": ["PartitionedCall/model_59/tf.math.add_167/Add", "PartitionedCall/model_59/tf.math.sigmoid_125/Sigmoid"], "attr": {"T": {"type": "DT_FLOAT"}}}, {"name": "PartitionedCall/model_59/tf.math.add_168/Add", "op": "_FusedConv2D", "input": ["PartitionedCall/model_59/tf.math.multiply_527/Mul", "unknown_143", "unknown_149"], "device": "/device:CPU:0", "attr": {"num_host_args": {"i": "0"}, "data_format": {"s": "TkhXQw=="}, "filter_format": {"s": "SFdJTw=="}, "fused_ops": {"list": {"s": ["Qmlhc0FkZA=="]}}, "num_args": {"i": "1"}, "strides": {"list": {"i": ["1", "1", "1", "1"]}}, "TArgs": {"list": {"type": ["DT_FLOAT"]}}, "padding": {"s": "U0FNRQ=="}, "use_cudnn_on_gpu": {"b": true}, "leakyrelu_alpha": {"f": 0.2}, "epsilon": {"f": 0.0}, "T": {"type": "DT_FLOAT"}, "explicit_paddings": {"list": {}}, "dilations": {"list": {"i": ["1", "1", "1", "1"]}}}}, {"name": "PartitionedCall/model_59/tf.math.add_169/Add", "op": "_FusedConv2D", "input": ["PartitionedCall/model_59/tf.math.multiply_531/Mul", "unknown_179", "unknown_186"], "device": "/device:CPU:0", "attr": {"num_host_args": {"i": "0"}, "data_format": {"s": "TkhXQw=="}, "filter_format": {"s": "SFdJTw=="}, "strides": {"list": {"i": ["1", "1", "1", "1"]}}, "num_args": {"i": "1"}, "fused_ops": {"list": {"s": ["Qmlhc0FkZA=="]}}, "TArgs": {"list": {"type": ["DT_FLOAT"]}}, "padding": {"s": "U0FNRQ=="}, "use_cudnn_on_gpu": {"b": true}, "leakyrelu_alpha": {"f": 0.2}, "epsilon": {"f": 0.0}, "T": {"type": "DT_FLOAT"}, "explicit_paddings": {"list": {}}, "dilations": {"list": {"i": ["1", "1", "1", "1"]}}}}, {"name": "PartitionedCall/model_59/tf.math.add_170/Add", "op": "_FusedConv2D", "input": ["PartitionedCall/model_59/tf.math.multiply_535/Mul", "unknown_164", "unknown_167"], "device": "/device:CPU:0", "attr": {"num_host_args": {"i": "0"}, "data_format": {"s": "TkhXQw=="}, "filter_format": {"s": "SFdJTw=="}, "strides": {"list": {"i": ["1", "1", "1", "1"]}}, "num_args": {"i": "1"}, "fused_ops": {"list": {"s": ["Qmlhc0FkZA=="]}}, "TArgs": {"list": {"type": ["DT_FLOAT"]}}, "padding": {"s": "U0FNRQ=="}, "use_cudnn_on_gpu": {"b": true}, "leakyrelu_alpha": {"f": 0.2}, "epsilon": {"f": 0.0}, "T": {"type": "DT_FLOAT"}, "explicit_paddings": {"list": {}}, "dilations": {"list": {"i": ["1", "1", "1", "1"]}}}}, {"name": "PartitionedCall/model_59/tf.compat.v1.transpose_234/transpose", "op": "Transpose", "input": ["PartitionedCall/model_59/tf.math.add_168/Add", "PartitionedCall/model_59/tf.compat.v1.transpose_234/transpose/perm"], "attr": {"Tperm": {"type": "DT_INT32"}, "T": {"type": "DT_FLOAT"}}}, {"name": "PartitionedCall/model_59/tf.compat.v1.transpose_239/transpose", "op": "Transpose", "input": ["PartitionedCall/model_59/tf.math.add_169/Add", "PartitionedCall/model_59/tf.compat.v1.transpose_239/transpose/perm"], "attr": {"Tperm": {"type": "DT_INT32"}, "T": {"type": "DT_FLOAT"}}}, {"name": "PartitionedCall/model_59/tf.compat.v1.transpose_244/transpose", "op": "Transpose", "input": ["PartitionedCall/model_59/tf.math.add_170/Add", "PartitionedCall/model_59/tf.compat.v1.transpose_244/transpose/perm"], "attr": {"Tperm": {"type": "DT_INT32"}, "T": {"type": "DT_FLOAT"}}}, {"name": "PartitionedCall/model_59/tf.reshape_59/Reshape", "op": "Reshape", "input": ["PartitionedCall/model_59/tf.compat.v1.transpose_234/transpose", "PartitionedCall/model_59/tf.reshape_59/Reshape/shape"], "attr": {"T": {"type": "DT_FLOAT"}, "Tshape": {"type": "DT_INT32"}}}, {"name": "PartitionedCall/model_59/tf.reshape_62/Reshape", "op": "Reshape", "input": ["PartitionedCall/model_59/tf.compat.v1.transpose_239/transpose", "PartitionedCall/model_59/tf.reshape_62/Reshape/shape"], "attr": {"T": {"type": "DT_FLOAT"}, "Tshape": {"type": "DT_INT32"}}}, {"name": "PartitionedCall/model_59/tf.reshape_65/Reshape", "op": "Reshape", "input": ["PartitionedCall/model_59/tf.compat.v1.transpose_244/transpose", "PartitionedCall/model_59/tf.reshape_65/Reshape/shape"], "attr": {"T": {"type": "DT_FLOAT"}, "Tshape": {"type": "DT_INT32"}}}, {"name": "PartitionedCall/model_59/tf.concat_35/concat", "op": "ConcatV2", "input": ["PartitionedCall/model_59/tf.reshape_41/Reshape", "PartitionedCall/model_59/tf.reshape_50/Reshape", "PartitionedCall/model_59/tf.reshape_59/Reshape", "PartitionedCall/model_59/tf.concat_35/concat/axis"], "attr": {"N": {"i": "3"}, "Tidx": {"type": "DT_INT32"}, "T": {"type": "DT_FLOAT"}}}, {"name": "PartitionedCall/model_59/tf.concat_36/concat", "op": "ConcatV2", "input": ["PartitionedCall/model_59/tf.reshape_44/Reshape", "PartitionedCall/model_59/tf.reshape_53/Reshape", "PartitionedCall/model_59/tf.reshape_62/Reshape", "PartitionedCall/model_59/tf.concat_36/concat/axis"], "attr": {"N": {"i": "3"}, "T": {"type": "DT_FLOAT"}, "Tidx": {"type": "DT_INT32"}}}, {"name": "PartitionedCall/model_59/tf.concat_37/concat", "op": "ConcatV2", "input": ["PartitionedCall/model_59/tf.reshape_47/Reshape", "PartitionedCall/model_59/tf.reshape_56/Reshape", "PartitionedCall/model_59/tf.reshape_65/Reshape", "PartitionedCall/model_59/tf.concat_37/concat/axis"], "attr": {"N": {"i": "3"}, "Tidx": {"type": "DT_INT32"}, "T": {"type": "DT_FLOAT"}}}, {"name": "PartitionedCall/model_59/tf.reshape_68/Reshape", "op": "Reshape", "input": ["PartitionedCall/model_59/tf.concat_35/concat", "PartitionedCall/model_59/tf.reshape_68/Reshape/shape"], "attr": {"T": {"type": "DT_FLOAT"}, "Tshape": {"type": "DT_INT32"}}}, {"name": "PartitionedCall/model_59/tf.math.sigmoid_126/Sigmoid", "op": "Sigmoid", "input": ["PartitionedCall/model_59/tf.concat_36/concat"], "attr": {"T": {"type": "DT_FLOAT"}}}, {"name": "PartitionedCall/model_59/tf.reshape_71/Reshape", "op": "Reshape", "input": ["PartitionedCall/model_59/tf.concat_37/concat", "PartitionedCall/model_59/tf.reshape_71/Reshape/shape"], "attr": {"T": {"type": "DT_FLOAT"}, "Tshape": {"type": "DT_INT32"}}}, {"name": "PartitionedCall/model_59/tf.compat.v1.transpose_255/transpose", "op": "Transpose", "input": ["PartitionedCall/model_59/tf.reshape_68/Reshape", "PartitionedCall/model_59/tf.compat.v1.transpose_255/transpose/perm"], "attr": {"Tperm": {"type": "DT_INT32"}, "T": {"type": "DT_FLOAT"}}}, {"name": "PartitionedCall/model_59/tf.strided_slice_36/StridedSlice", "op": "StridedSlice", "input": ["PartitionedCall/model_59/tf.reshape_71/Reshape", "unknown_177", "unknown_178", "PartitionedCall/model_59/tf.strided_slice_36/StridedSlice/strides"], "attr": {"shrink_axis_mask": {"i": "0"}, "Index": {"type": "DT_INT64"}, "new_axis_mask": {"i": "0"}, "begin_mask": {"i": "15"}, "end_mask": {"i": "11"}, "T": {"type": "DT_FLOAT"}, "ellipsis_mask": {"i": "0"}}}, {"name": "PartitionedCall/model_59/tf.strided_slice_37/StridedSlice", "op": "StridedSlice", "input": ["PartitionedCall/model_59/tf.reshape_71/Reshape", "unknown_191", "unknown_192", "PartitionedCall/model_59/tf.strided_slice_37/StridedSlice/strides"], "attr": {"shrink_axis_mask": {"i": "0"}, "new_axis_mask": {"i": "0"}, "Index": {"type": "DT_INT64"}, "begin_mask": {"i": "11"}, "T": {"type": "DT_FLOAT"}, "end_mask": {"i": "11"}, "ellipsis_mask": {"i": "0"}}}, {"name": "PartitionedCall/model_59/tf.compat.v1.transpose_256/transpose", "op": "Transpose", "input": ["PartitionedCall/model_59/tf.compat.v1.transpose_255/transpose", "PartitionedCall/model_59/tf.compat.v1.transpose_256/transpose/perm"], "attr": {"Tperm": {"type": "DT_INT32"}, "T": {"type": "DT_FLOAT"}}}, {"name": "PartitionedCall/model_59/tf.math.multiply_537/Mul", "op": "Mul", "input": ["PartitionedCall/model_59/tf.strided_slice_36/StridedSlice", "PartitionedCall/model_59/tf.math.multiply_537/Mul/y"], "attr": {"T": {"type": "DT_FLOAT"}}}, {"name": "PartitionedCall/model_59/tf.math.sigmoid_127/Sigmoid", "op": "Sigmoid", "input": ["PartitionedCall/model_59/tf.strided_slice_37/StridedSlice"], "attr": {"T": {"type": "DT_FLOAT"}}}, {"name": "PartitionedCall/model_59/tf.nn.softmax_1/wa/model.22/dfl/Softmax", "op": "Softmax", "input": ["PartitionedCall/model_59/tf.compat.v1.transpose_256/transpose"], "attr": {"T": {"type": "DT_FLOAT"}}}, {"name": "PartitionedCall/model_59/tf.math.add_171/Add", "op": "AddV2", "input": ["PartitionedCall/model_59/tf.math.multiply_537/Mul", "unknown_193"], "attr": {"T": {"type": "DT_FLOAT"}}}, {"name": "PartitionedCall/model_59/tf.nn.convolution_145/convolution", "op": "Conv2D", "input": ["PartitionedCall/model_59/tf.nn.softmax_1/wa/model.22/dfl/Softmax", "unknown_176"], "device": "/device:CPU:0", "attr": {"padding": {"s": "U0FNRQ=="}, "data_format": {"s": "TkhXQw=="}, "strides": {"list": {"i": ["1", "1", "1", "1"]}}, "use_cudnn_on_gpu": {"b": true}, "T": {"type": "DT_FLOAT"}, "explicit_paddings": {"list": {}}, "dilations": {"list": {"i": ["1", "1", "1", "1"]}}}}, {"name": "PartitionedCall/model_59/tf.math.multiply_538/Mul", "op": "Mul", "input": ["PartitionedCall/model_59/tf.math.add_171/Add", "PartitionedCall/model_59/tf.math.multiply_538/Mul/y"], "attr": {"T": {"type": "DT_FLOAT"}}}, {"name": "PartitionedCall/model_59/tf.compat.v1.transpose_261/transpose", "op": "Transpose", "input": ["PartitionedCall/model_59/tf.nn.convolution_145/convolution", "PartitionedCall/model_59/tf.compat.v1.transpose_261/transpose/perm"], "attr": {"Tperm": {"type": "DT_INT32"}, "T": {"type": "DT_FLOAT"}}}, {"name": "PartitionedCall/model_59/tf.concat_38/concat", "op": "ConcatV2", "input": ["PartitionedCall/model_59/tf.math.multiply_538/Mul", "PartitionedCall/model_59/tf.math.sigmoid_127/Sigmoid", "PartitionedCall/model_59/tf.concat_38/concat/axis"], "attr": {"N": {"i": "2"}, "T": {"type": "DT_FLOAT"}, "Tidx": {"type": "DT_INT32"}}}, {"name": "PartitionedCall/model_59/tf.reshape_74/Reshape", "op": "Reshape", "input": ["PartitionedCall/model_59/tf.compat.v1.transpose_261/transpose", "PartitionedCall/model_59/tf.reshape_74/Reshape/shape"], "attr": {"T": {"type": "DT_FLOAT"}, "Tshape": {"type": "DT_INT32"}}}, {"name": "PartitionedCall/model_59/tf.reshape_77/Reshape", "op": "Reshape", "input": ["PartitionedCall/model_59/tf.concat_38/concat", "PartitionedCall/model_59/tf.reshape_77/Reshape/shape"], "attr": {"T": {"type": "DT_FLOAT"}, "Tshape": {"type": "DT_INT32"}}}, {"name": "PartitionedCall/model_59/tf.strided_slice_39/StridedSlice", "op": "StridedSlice", "input": ["PartitionedCall/model_59/tf.reshape_74/Reshape", "unknown_182", "unknown_183", "PartitionedCall/model_59/tf.strided_slice_39/ones_like"], "attr": {"shrink_axis_mask": {"i": "0"}, "Index": {"type": "DT_INT64"}, "new_axis_mask": {"i": "0"}, "begin_mask": {"i": "5"}, "end_mask": {"i": "5"}, "T": {"type": "DT_FLOAT"}, "ellipsis_mask": {"i": "0"}}}, {"name": "PartitionedCall/model_59/tf.strided_slice_38/StridedSlice", "op": "StridedSlice", "input": ["PartitionedCall/model_59/tf.reshape_74/Reshape", "unknown_184", "unknown_185", "PartitionedCall/model_59/tf.strided_slice_38/ones_like"], "attr": {"shrink_axis_mask": {"i": "0"}, "new_axis_mask": {"i": "0"}, "Index": {"type": "DT_INT64"}, "begin_mask": {"i": "7"}, "end_mask": {"i": "5"}, "T": {"type": "DT_FLOAT"}, "ellipsis_mask": {"i": "0"}}}, {"name": "PartitionedCall/model_59/tf.math.add_172/Add", "op": "AddV2", "input": ["PartitionedCall/model_59/tf.strided_slice_39/StridedSlice", "unknown_189"], "attr": {"T": {"type": "DT_FLOAT"}}}, {"name": "PartitionedCall/model_59/tf.math.subtract_2/Sub", "op": "Sub", "input": ["unknown_190", "PartitionedCall/model_59/tf.strided_slice_38/StridedSlice"], "attr": {"T": {"type": "DT_FLOAT"}}}, {"name": "PartitionedCall/model_59/tf.math.add_173/Add", "op": "AddV2", "input": ["PartitionedCall/model_59/tf.math.subtract_2/Sub", "PartitionedCall/model_59/tf.math.add_172/Add"], "attr": {"T": {"type": "DT_FLOAT"}}}, {"name": "PartitionedCall/model_59/tf.math.subtract_3/Sub", "op": "Sub", "input": ["PartitionedCall/model_59/tf.math.add_172/Add", "PartitionedCall/model_59/tf.math.subtract_2/Sub"], "attr": {"T": {"type": "DT_FLOAT"}}}, {"name": "PartitionedCall/model_59/tf.math.divide_1/truediv", "op": "Mul", "input": ["PartitionedCall/model_59/tf.math.add_173/Add", "ConstantFolding/PartitionedCall/model_59/tf.math.divide_1/truediv_recip"], "attr": {"T": {"type": "DT_FLOAT"}}}, {"name": "PartitionedCall/model_59/tf.concat_42/concat", "op": "ConcatV2", "input": ["PartitionedCall/model_59/tf.math.divide_1/truediv", "PartitionedCall/model_59/tf.math.subtract_3/Sub", "PartitionedCall/model_59/tf.concat_42/concat/axis"], "attr": {"N": {"i": "2"}, "Tidx": {"type": "DT_INT32"}, "T": {"type": "DT_FLOAT"}}}, {"name": "PartitionedCall/model_59/tf.math.multiply_551/Mul", "op": "Mul", "input": ["PartitionedCall/model_59/tf.concat_42/concat", "PartitionedCall/model_59/tf.math.multiply_551/Mul/y"], "attr": {"T": {"type": "DT_FLOAT"}}}, {"name": "PartitionedCall/model_59/output0/concat", "op": "ConcatV2", "input": ["PartitionedCall/model_59/tf.math.multiply_551/Mul", "PartitionedCall/model_59/tf.math.sigmoid_126/Sigmoid", "PartitionedCall/model_59/tf.reshape_77/Reshape", "PartitionedCall/model_59/output0/concat/axis"], "attr": {"N": {"i": "3"}, "T": {"type": "DT_FLOAT"}, "Tidx": {"type": "DT_INT32"}}}, {"name": "Identity", "op": "Identity", "input": ["PartitionedCall/model_59/output0/concat"], "attr": {"T": {"type": "DT_FLOAT"}}}], "library": {}, "versions": {"producer": 2129}}, "weightsManifest": [{"paths": ["group1-shard1of4.bin", "group1-shard2of4.bin", "group1-shard3of4.bin", "group1-shard4of4.bin"], "weights": [{"name": "ConstantFolding/PartitionedCall/model_59/tf.math.divide_1/truediv_recip", "shape": [], "dtype": "float32"}, {"name": "unknown_182", "shape": [3], "dtype": "int32"}, {"name": "unknown_183", "shape": [3], "dtype": "int32"}, {"name": "PartitionedCall/model_59/tf.strided_slice_39/ones_like", "shape": [3], "dtype": "int32"}, {"name": "unknown_189", "shape": [1, 2, 8400], "dtype": "float32"}, {"name": "unknown_190", "shape": [1, 2, 8400], "dtype": "float32"}, {"name": "unknown_130", "shape": [3, 3, 64, 64], "dtype": "float32"}, {"name": "unknown_133", "shape": [64], "dtype": "float32"}, {"name": "unknown_136", "shape": [3, 3, 64, 64], "dtype": "float32"}, {"name": "unknown_139", "shape": [64], "dtype": "float32"}, {"name": "unknown_145", "shape": [1, 1, 64, 64], "dtype": "float32"}, {"name": "unknown_151", "shape": [64], "dtype": "float32"}, {"name": "PartitionedCall/model_59/tf.compat.v1.transpose_184/transpose/perm", "shape": [4], "dtype": "int32"}, {"name": "PartitionedCall/model_59/tf.reshape_41/Reshape/shape", "shape": [3], "dtype": "int32"}, {"name": "unknown_129", "shape": [3, 3, 128, 64], "dtype": "float32"}, {"name": "unknown_132", "shape": [64], "dtype": "float32"}, {"name": "unknown_135", "shape": [3, 3, 64, 64], "dtype": "float32"}, {"name": "unknown_138", "shape": [64], "dtype": "float32"}, {"name": "unknown_144", "shape": [1, 1, 64, 64], "dtype": "float32"}, {"name": "unknown_150", "shape": [64], "dtype": "float32"}, {"name": "PartitionedCall/model_59/tf.compat.v1.transpose_210/transpose/perm", "shape": [4], "dtype": "int32"}, {"name": "PartitionedCall/model_59/tf.reshape_50/Reshape/shape", "shape": [3], "dtype": "int32"}, {"name": "unknown_128", "shape": [3, 3, 256, 64], "dtype": "float32"}, {"name": "unknown_131", "shape": [64], "dtype": "float32"}, {"name": "unknown_134", "shape": [3, 3, 64, 64], "dtype": "float32"}, {"name": "unknown_137", "shape": [64], "dtype": "float32"}, {"name": "unknown_143", "shape": [1, 1, 64, 64], "dtype": "float32"}, {"name": "unknown_149", "shape": [64], "dtype": "float32"}, {"name": "PartitionedCall/model_59/tf.compat.v1.transpose_234/transpose/perm", "shape": [4], "dtype": "int32"}, {"name": "PartitionedCall/model_59/tf.reshape_59/Reshape/shape", "shape": [3], "dtype": "int32"}, {"name": "PartitionedCall/model_59/tf.concat_35/concat/axis", "shape": [], "dtype": "int32"}, {"name": "PartitionedCall/model_59/tf.reshape_68/Reshape/shape", "shape": [4], "dtype": "int32"}, {"name": "PartitionedCall/model_59/tf.compat.v1.transpose_255/transpose/perm", "shape": [4], "dtype": "int32"}, {"name": "PartitionedCall/model_59/tf.compat.v1.transpose_256/transpose/perm", "shape": [4], "dtype": "int32"}, {"name": "unknown_176", "shape": [1, 1, 16, 1], "dtype": "float32"}, {"name": "PartitionedCall/model_59/tf.compat.v1.transpose_261/transpose/perm", "shape": [4], "dtype": "int32"}, {"name": "PartitionedCall/model_59/tf.reshape_74/Reshape/shape", "shape": [3], "dtype": "int32"}, {"name": "unknown_184", "shape": [3], "dtype": "int32"}, {"name": "unknown_185", "shape": [3], "dtype": "int32"}, {"name": "PartitionedCall/model_59/tf.strided_slice_38/ones_like", "shape": [3], "dtype": "int32"}, {"name": "PartitionedCall/model_59/tf.concat_42/concat/axis", "shape": [], "dtype": "int32"}, {"name": "PartitionedCall/model_59/tf.math.multiply_551/Mul/y", "shape": [1, 1, 8400], "dtype": "float32"}, {"name": "unknown_160", "shape": [3, 3, 64, 64], "dtype": "float32"}, {"name": "unknown_163", "shape": [64], "dtype": "float32"}, {"name": "unknown_172", "shape": [3, 3, 64, 64], "dtype": "float32"}, {"name": "unknown_175", "shape": [64], "dtype": "float32"}, {"name": "unknown_181", "shape": [1, 1, 64, 5], "dtype": "float32"}, {"name": "unknown_188", "shape": [5], "dtype": "float32"}, {"name": "PartitionedCall/model_59/tf.compat.v1.transpose_189/transpose/perm", "shape": [4], "dtype": "int32"}, {"name": "PartitionedCall/model_59/tf.reshape_44/Reshape/shape", "shape": [3], "dtype": "int32"}, {"name": "unknown_159", "shape": [3, 3, 128, 64], "dtype": "float32"}, {"name": "unknown_162", "shape": [64], "dtype": "float32"}, {"name": "unknown_171", "shape": [3, 3, 64, 64], "dtype": "float32"}, {"name": "unknown_174", "shape": [64], "dtype": "float32"}, {"name": "unknown_180", "shape": [1, 1, 64, 5], "dtype": "float32"}, {"name": "unknown_187", "shape": [5], "dtype": "float32"}, {"name": "PartitionedCall/model_59/tf.compat.v1.transpose_215/transpose/perm", "shape": [4], "dtype": "int32"}, {"name": "PartitionedCall/model_59/tf.reshape_53/Reshape/shape", "shape": [3], "dtype": "int32"}, {"name": "unknown_158", "shape": [3, 3, 256, 64], "dtype": "float32"}, {"name": "unknown_161", "shape": [64], "dtype": "float32"}, {"name": "unknown_170", "shape": [3, 3, 64, 64], "dtype": "float32"}, {"name": "unknown_173", "shape": [64], "dtype": "float32"}, {"name": "unknown_179", "shape": [1, 1, 64, 5], "dtype": "float32"}, {"name": "unknown_186", "shape": [5], "dtype": "float32"}, {"name": "PartitionedCall/model_59/tf.compat.v1.transpose_239/transpose/perm", "shape": [4], "dtype": "int32"}, {"name": "PartitionedCall/model_59/tf.reshape_62/Reshape/shape", "shape": [3], "dtype": "int32"}, {"name": "PartitionedCall/model_59/tf.concat_36/concat/axis", "shape": [], "dtype": "int32"}, {"name": "unknown_177", "shape": [4], "dtype": "int32"}, {"name": "unknown_178", "shape": [4], "dtype": "int32"}, {"name": "PartitionedCall/model_59/tf.strided_slice_36/StridedSlice/strides", "shape": [4], "dtype": "int32"}, {"name": "PartitionedCall/model_59/tf.math.multiply_537/Mul/y", "shape": [], "dtype": "float32"}, {"name": "unknown_193", "shape": [1, 1, 2, 8400], "dtype": "float32"}, {"name": "PartitionedCall/model_59/tf.math.multiply_538/Mul/y", "shape": [1, 1, 1, 8400], "dtype": "float32"}, {"name": "unknown_142", "shape": [3, 3, 64, 16], "dtype": "float32"}, {"name": "unknown_148", "shape": [16], "dtype": "float32"}, {"name": "unknown_154", "shape": [3, 3, 16, 16], "dtype": "float32"}, {"name": "unknown_157", "shape": [16], "dtype": "float32"}, {"name": "unknown_166", "shape": [1, 1, 16, 9], "dtype": "float32"}, {"name": "unknown_169", "shape": [9], "dtype": "float32"}, {"name": "PartitionedCall/model_59/tf.compat.v1.transpose_194/transpose/perm", "shape": [4], "dtype": "int32"}, {"name": "PartitionedCall/model_59/tf.reshape_47/Reshape/shape", "shape": [3], "dtype": "int32"}, {"name": "unknown_141", "shape": [3, 3, 128, 16], "dtype": "float32"}, {"name": "unknown_147", "shape": [16], "dtype": "float32"}, {"name": "unknown_153", "shape": [3, 3, 16, 16], "dtype": "float32"}, {"name": "unknown_156", "shape": [16], "dtype": "float32"}, {"name": "unknown_165", "shape": [1, 1, 16, 9], "dtype": "float32"}, {"name": "unknown_168", "shape": [9], "dtype": "float32"}, {"name": "PartitionedCall/model_59/tf.compat.v1.transpose_220/transpose/perm", "shape": [4], "dtype": "int32"}, {"name": "PartitionedCall/model_59/tf.reshape_56/Reshape/shape", "shape": [3], "dtype": "int32"}, {"name": "unknown_124", "shape": [4], "dtype": "int32"}, {"name": "unknown_125", "shape": [4], "dtype": "int32"}, {"name": "PartitionedCall/model_59/tf.strided_slice_34/ones_like", "shape": [4], "dtype": "int32"}, {"name": "unknown_109", "shape": [4], "dtype": "int32"}, {"name": "unknown_110", "shape": [4], "dtype": "int32"}, {"name": "PartitionedCall/model_59/tf.strided_slice_32/ones_like", "shape": [4], "dtype": "int32"}, {"name": "unknown_94", "shape": [4], "dtype": "int32"}, {"name": "unknown_95", "shape": [4], "dtype": "int32"}, {"name": "PartitionedCall/model_59/tf.strided_slice_30/ones_like", "shape": [4], "dtype": "int32"}, {"name": "PartitionedCall/model_59/tf.image.resize_3/resize/size", "shape": [2], "dtype": "int32"}, {"name": "PartitionedCall/model_59/tf.concat_29/concat/axis", "shape": [], "dtype": "int32"}, {"name": "unknown_86", "shape": [1, 1, 192, 64], "dtype": "float32"}, {"name": "unknown_87", "shape": [64], "dtype": "float32"}, {"name": "unknown_88", "shape": [4], "dtype": "int32"}, {"name": "unknown_89", "shape": [4], "dtype": "int32"}, {"name": "PartitionedCall/model_59/tf.strided_slice_31/ones_like", "shape": [4], "dtype": "int32"}, {"name": "unknown_90", "shape": [3, 3, 32, 32], "dtype": "float32"}, {"name": "unknown_91", "shape": [32], "dtype": "float32"}, {"name": "unknown_92", "shape": [3, 3, 32, 32], "dtype": "float32"}, {"name": "unknown_93", "shape": [32], "dtype": "float32"}, {"name": "PartitionedCall/model_59/tf.concat_30/concat/axis", "shape": [], "dtype": "int32"}, {"name": "unknown_96", "shape": [1, 1, 96, 64], "dtype": "float32"}, {"name": "unknown_97", "shape": [64], "dtype": "float32"}, {"name": "unknown_98", "shape": [4, 2], "dtype": "int32"}, {"name": "unknown_99", "shape": [3, 3, 64, 64], "dtype": "float32"}, {"name": "unknown_100", "shape": [64], "dtype": "float32"}, {"name": "unknown_82", "shape": [4], "dtype": "int32"}, {"name": "unknown_83", "shape": [4], "dtype": "int32"}, {"name": "PartitionedCall/model_59/tf.strided_slice_28/ones_like", "shape": [4], "dtype": "int32"}, {"name": "PartitionedCall/model_59/tf.image.resize_2/resize/size", "shape": [2], "dtype": "int32"}, {"name": "PartitionedCall/model_59/tf.concat_27/concat/axis", "shape": [], "dtype": "int32"}, {"name": "unknown_74", "shape": [1, 1, 384, 128], "dtype": "float32"}, {"name": "unknown_75", "shape": [128], "dtype": "float32"}, {"name": "unknown_76", "shape": [4], "dtype": "int32"}, {"name": "unknown_77", "shape": [4], "dtype": "int32"}, {"name": "PartitionedCall/model_59/tf.strided_slice_29/ones_like", "shape": [4], "dtype": "int32"}, {"name": "unknown_78", "shape": [3, 3, 64, 64], "dtype": "float32"}, {"name": "unknown_79", "shape": [64], "dtype": "float32"}, {"name": "unknown_80", "shape": [3, 3, 64, 64], "dtype": "float32"}, {"name": "unknown_81", "shape": [64], "dtype": "float32"}, {"name": "PartitionedCall/model_59/tf.concat_28/concat/axis", "shape": [], "dtype": "int32"}, {"name": "unknown_84", "shape": [1, 1, 192, 128], "dtype": "float32"}, {"name": "unknown_85", "shape": [128], "dtype": "float32"}, {"name": "PartitionedCall/model_59/tf.concat_31/concat/axis", "shape": [], "dtype": "int32"}, {"name": "unknown_101", "shape": [1, 1, 192, 128], "dtype": "float32"}, {"name": "unknown_102", "shape": [128], "dtype": "float32"}, {"name": "unknown_103", "shape": [4], "dtype": "int32"}, {"name": "unknown_104", "shape": [4], "dtype": "int32"}, {"name": "PartitionedCall/model_59/tf.strided_slice_33/ones_like", "shape": [4], "dtype": "int32"}, {"name": "unknown_105", "shape": [3, 3, 64, 64], "dtype": "float32"}, {"name": "unknown_106", "shape": [64], "dtype": "float32"}, {"name": "unknown_107", "shape": [3, 3, 64, 64], "dtype": "float32"}, {"name": "unknown_108", "shape": [64], "dtype": "float32"}, {"name": "PartitionedCall/model_59/tf.concat_32/concat/axis", "shape": [], "dtype": "int32"}, {"name": "unknown_111", "shape": [1, 1, 192, 128], "dtype": "float32"}, {"name": "unknown_112", "shape": [128], "dtype": "float32"}, {"name": "unknown_113", "shape": [4, 2], "dtype": "int32"}, {"name": "unknown_114", "shape": [3, 3, 128, 128], "dtype": "float32"}, {"name": "unknown_115", "shape": [128], "dtype": "float32"}, {"name": "unknown_66", "shape": [4], "dtype": "int32"}, {"name": "unknown_67", "shape": [4], "dtype": "int32"}, {"name": "PartitionedCall/model_59/tf.strided_slice_26/ones_like", "shape": [4], "dtype": "int32"}, {"name": "unknown_51", "shape": [4], "dtype": "int32"}, {"name": "unknown_52", "shape": [4], "dtype": "int32"}, {"name": "PartitionedCall/model_59/tf.strided_slice_24/ones_like", "shape": [4], "dtype": "int32"}, {"name": "unknown_32", "shape": [4], "dtype": "int32"}, {"name": "unknown_33", "shape": [4], "dtype": "int32"}, {"name": "PartitionedCall/model_59/tf.strided_slice_22/ones_like", "shape": [4], "dtype": "int32"}, {"name": "unknown_13", "shape": [4], "dtype": "int32"}, {"name": "unknown_14", "shape": [4], "dtype": "int32"}, {"name": "PartitionedCall/model_59/tf.strided_slice_20/ones_like", "shape": [4], "dtype": "int32"}, {"name": "unknown", "shape": [4, 2], "dtype": "int32"}, {"name": "unknown_0", "shape": [3, 3, 3, 16], "dtype": "float32"}, {"name": "unknown_1", "shape": [16], "dtype": "float32"}, {"name": "unknown_2", "shape": [4, 2], "dtype": "int32"}, {"name": "unknown_3", "shape": [3, 3, 16, 32], "dtype": "float32"}, {"name": "unknown_4", "shape": [32], "dtype": "float32"}, {"name": "unknown_5", "shape": [1, 1, 32, 32], "dtype": "float32"}, {"name": "unknown_6", "shape": [32], "dtype": "float32"}, {"name": "unknown_7", "shape": [4], "dtype": "int32"}, {"name": "unknown_8", "shape": [4], "dtype": "int32"}, {"name": "PartitionedCall/model_59/tf.strided_slice_21/ones_like", "shape": [4], "dtype": "int32"}, {"name": "unknown_9", "shape": [3, 3, 16, 16], "dtype": "float32"}, {"name": "unknown_10", "shape": [16], "dtype": "float32"}, {"name": "unknown_11", "shape": [3, 3, 16, 16], "dtype": "float32"}, {"name": "unknown_12", "shape": [16], "dtype": "float32"}, {"name": "PartitionedCall/model_59/tf.concat_22/concat/axis", "shape": [], "dtype": "int32"}, {"name": "unknown_15", "shape": [1, 1, 48, 32], "dtype": "float32"}, {"name": "unknown_16", "shape": [32], "dtype": "float32"}, {"name": "unknown_17", "shape": [4, 2], "dtype": "int32"}, {"name": "unknown_18", "shape": [3, 3, 32, 64], "dtype": "float32"}, {"name": "unknown_19", "shape": [64], "dtype": "float32"}, {"name": "unknown_20", "shape": [1, 1, 64, 64], "dtype": "float32"}, {"name": "unknown_21", "shape": [64], "dtype": "float32"}, {"name": "unknown_22", "shape": [4], "dtype": "int32"}, {"name": "unknown_23", "shape": [4], "dtype": "int32"}, {"name": "PartitionedCall/model_59/tf.strided_slice_23/ones_like", "shape": [4], "dtype": "int32"}, {"name": "unknown_24", "shape": [3, 3, 32, 32], "dtype": "float32"}, {"name": "unknown_25", "shape": [32], "dtype": "float32"}, {"name": "unknown_26", "shape": [3, 3, 32, 32], "dtype": "float32"}, {"name": "unknown_27", "shape": [32], "dtype": "float32"}, {"name": "unknown_28", "shape": [3, 3, 32, 32], "dtype": "float32"}, {"name": "unknown_29", "shape": [32], "dtype": "float32"}, {"name": "unknown_30", "shape": [3, 3, 32, 32], "dtype": "float32"}, {"name": "unknown_31", "shape": [32], "dtype": "float32"}, {"name": "PartitionedCall/model_59/tf.concat_23/concat/axis", "shape": [], "dtype": "int32"}, {"name": "unknown_34", "shape": [1, 1, 128, 64], "dtype": "float32"}, {"name": "unknown_35", "shape": [64], "dtype": "float32"}, {"name": "unknown_36", "shape": [4, 2], "dtype": "int32"}, {"name": "unknown_37", "shape": [3, 3, 64, 128], "dtype": "float32"}, {"name": "unknown_38", "shape": [128], "dtype": "float32"}, {"name": "unknown_39", "shape": [1, 1, 128, 128], "dtype": "float32"}, {"name": "unknown_40", "shape": [128], "dtype": "float32"}, {"name": "unknown_41", "shape": [4], "dtype": "int32"}, {"name": "unknown_42", "shape": [4], "dtype": "int32"}, {"name": "PartitionedCall/model_59/tf.strided_slice_25/ones_like", "shape": [4], "dtype": "int32"}, {"name": "unknown_43", "shape": [3, 3, 64, 64], "dtype": "float32"}, {"name": "unknown_44", "shape": [64], "dtype": "float32"}, {"name": "unknown_45", "shape": [3, 3, 64, 64], "dtype": "float32"}, {"name": "unknown_46", "shape": [64], "dtype": "float32"}, {"name": "unknown_47", "shape": [3, 3, 64, 64], "dtype": "float32"}, {"name": "unknown_48", "shape": [64], "dtype": "float32"}, {"name": "unknown_49", "shape": [3, 3, 64, 64], "dtype": "float32"}, {"name": "unknown_50", "shape": [64], "dtype": "float32"}, {"name": "PartitionedCall/model_59/tf.concat_24/concat/axis", "shape": [], "dtype": "int32"}, {"name": "unknown_53", "shape": [1, 1, 256, 128], "dtype": "float32"}, {"name": "unknown_54", "shape": [128], "dtype": "float32"}, {"name": "unknown_55", "shape": [4, 2], "dtype": "int32"}, {"name": "unknown_56", "shape": [3, 3, 128, 256], "dtype": "float32"}, {"name": "unknown_57", "shape": [256], "dtype": "float32"}, {"name": "unknown_58", "shape": [1, 1, 256, 256], "dtype": "float32"}, {"name": "unknown_59", "shape": [256], "dtype": "float32"}, {"name": "unknown_60", "shape": [4], "dtype": "int32"}, {"name": "unknown_61", "shape": [4], "dtype": "int32"}, {"name": "PartitionedCall/model_59/tf.strided_slice_27/ones_like", "shape": [4], "dtype": "int32"}, {"name": "unknown_62", "shape": [3, 3, 128, 128], "dtype": "float32"}, {"name": "unknown_63", "shape": [128], "dtype": "float32"}, {"name": "unknown_64", "shape": [3, 3, 128, 128], "dtype": "float32"}, {"name": "unknown_65", "shape": [128], "dtype": "float32"}, {"name": "PartitionedCall/model_59/tf.concat_25/concat/axis", "shape": [], "dtype": "int32"}, {"name": "unknown_68", "shape": [1, 1, 384, 256], "dtype": "float32"}, {"name": "unknown_69", "shape": [256], "dtype": "float32"}, {"name": "unknown_70", "shape": [1, 1, 256, 128], "dtype": "float32"}, {"name": "unknown_71", "shape": [128], "dtype": "float32"}, {"name": "PartitionedCall/model_59/tf.concat_26/concat/axis", "shape": [], "dtype": "int32"}, {"name": "unknown_72", "shape": [1, 1, 512, 256], "dtype": "float32"}, {"name": "unknown_73", "shape": [256], "dtype": "float32"}, {"name": "PartitionedCall/model_59/tf.concat_33/concat/axis", "shape": [], "dtype": "int32"}, {"name": "unknown_116", "shape": [1, 1, 384, 256], "dtype": "float32"}, {"name": "unknown_117", "shape": [256], "dtype": "float32"}, {"name": "unknown_118", "shape": [4], "dtype": "int32"}, {"name": "unknown_119", "shape": [4], "dtype": "int32"}, {"name": "PartitionedCall/model_59/tf.strided_slice_35/ones_like", "shape": [4], "dtype": "int32"}, {"name": "unknown_120", "shape": [3, 3, 128, 128], "dtype": "float32"}, {"name": "unknown_121", "shape": [128], "dtype": "float32"}, {"name": "unknown_122", "shape": [3, 3, 128, 128], "dtype": "float32"}, {"name": "unknown_123", "shape": [128], "dtype": "float32"}, {"name": "PartitionedCall/model_59/tf.concat_34/concat/axis", "shape": [], "dtype": "int32"}, {"name": "unknown_126", "shape": [1, 1, 384, 256], "dtype": "float32"}, {"name": "unknown_127", "shape": [256], "dtype": "float32"}, {"name": "unknown_140", "shape": [3, 3, 256, 16], "dtype": "float32"}, {"name": "unknown_146", "shape": [16], "dtype": "float32"}, {"name": "unknown_152", "shape": [3, 3, 16, 16], "dtype": "float32"}, {"name": "unknown_155", "shape": [16], "dtype": "float32"}, {"name": "unknown_164", "shape": [1, 1, 16, 9], "dtype": "float32"}, {"name": "unknown_167", "shape": [9], "dtype": "float32"}, {"name": "PartitionedCall/model_59/tf.compat.v1.transpose_244/transpose/perm", "shape": [4], "dtype": "int32"}, {"name": "PartitionedCall/model_59/tf.reshape_65/Reshape/shape", "shape": [3], "dtype": "int32"}, {"name": "PartitionedCall/model_59/tf.concat_37/concat/axis", "shape": [], "dtype": "int32"}, {"name": "PartitionedCall/model_59/tf.reshape_71/Reshape/shape", "shape": [4], "dtype": "int32"}, {"name": "unknown_191", "shape": [4], "dtype": "int32"}, {"name": "unknown_192", "shape": [4], "dtype": "int32"}, {"name": "PartitionedCall/model_59/tf.strided_slice_37/StridedSlice/strides", "shape": [4], "dtype": "int32"}, {"name": "PartitionedCall/model_59/tf.concat_38/concat/axis", "shape": [], "dtype": "int32"}, {"name": "PartitionedCall/model_59/tf.reshape_77/Reshape/shape", "shape": [3], "dtype": "int32"}, {"name": "PartitionedCall/model_59/output0/concat/axis", "shape": [], "dtype": "int32"}]}]}